{"format": "graph-model", "generatedBy": "2.15.1", "convertedBy": "TensorFlow.js Converter v4.8.0", "signature": {"inputs": {"input_1": {"name": "input_1:0", "dtype": "DT_FLOAT", "tensorShape": {"dim": [{"size": "-1"}, {"size": "31"}, {"size": "9"}]}}}, "outputs": {"Identity:0": {"name": "Identity:0", "dtype": "DT_FLOAT", "tensorShape": {"dim": [{"size": "-1"}, {"size": "31"}, {"size": "9"}]}}, "Identity_1:0": {"name": "Identity_1:0", "dtype": "DT_FLOAT", "tensorShape": {"dim": [{"size": "-1"}, {"size": "31"}, {"size": "9"}]}}}}, "modelTopology": {"node": [{"name": "StatefulPartitionedCall/pip_line_explode_model/dense_11/Tensordot/Const", "op": "Const", "attr": {"value": {"tensor": {"dtype": "DT_INT32", "tensorShape": {"dim": [{"size": "1"}]}}}, "dtype": {"type": "DT_INT32"}}}, {"name": "StatefulPartitionedCall/pip_line_explode_model/dense_11/Tensordot/axes", "op": "Const", "attr": {"value": {"tensor": {"dtype": "DT_INT32", "tensorShape": {"dim": [{"size": "1"}]}}}, "dtype": {"type": "DT_INT32"}}}, {"name": "StatefulPartitionedCall/pip_line_explode_model/dense_11/Tensordot/GatherV2_1/axis", "op": "Const", "attr": {"value": {"tensor": {"dtype": "DT_INT32", "tensorShape": {}}}, "dtype": {"type": "DT_INT32"}}}, {"name": "StatefulPartitionedCall/pip_line_explode_model/dense_11/Tensordot/Const_1", "op": "Const", "attr": {"value": {"tensor": {"dtype": "DT_INT32", "tensorShape": {"dim": [{"size": "1"}]}}}, "dtype": {"type": "DT_INT32"}}}, {"name": "StatefulPartitionedCall/pip_line_explode_model/dense_11/Tensordot/ReadVariableOp", "op": "Const", "attr": {"value": {"tensor": {"dtype": "DT_FLOAT", "tensorShape": {"dim": [{"size": "256"}, {"size": "9"}]}}}, "dtype": {"type": "DT_FLOAT"}}}, {"name": "StatefulPartitionedCall/pip_line_explode_model/time_series_transformer/dense_10/Tensordot/Const", "op": "Const", "attr": {"value": {"tensor": {"dtype": "DT_INT32", "tensorShape": {"dim": [{"size": "1"}]}}}, "dtype": {"type": "DT_INT32"}}}, {"name": "StatefulPartitionedCall/pip_line_explode_model/time_series_transformer/dense_10/Tensordot/axes", "op": "Const", "attr": {"value": {"tensor": {"dtype": "DT_INT32", "tensorShape": {"dim": [{"size": "1"}]}}}, "dtype": {"type": "DT_INT32"}}}, {"name": "StatefulPartitionedCall/pip_line_explode_model/time_series_transformer/dense_10/Tensordot/GatherV2_1/axis", "op": "Const", "attr": {"value": {"tensor": {"dtype": "DT_INT32", "tensorShape": {}}}, "dtype": {"type": "DT_INT32"}}}, {"name": "StatefulPartitionedCall/pip_line_explode_model/time_series_transformer/dense_10/Tensordot/Const_1", "op": "Const", "attr": {"value": {"tensor": {"dtype": "DT_INT32", "tensorShape": {"dim": [{"size": "1"}]}}}, "dtype": {"type": "DT_INT32"}}}, {"name": "StatefulPartitionedCall/pip_line_explode_model/time_series_transformer/dense_10/Tensordot/ReadVariableOp", "op": "Const", "attr": {"value": {"tensor": {"dtype": "DT_FLOAT", "tensorShape": {"dim": [{"size": "256"}, {"size": "256"}]}}}, "dtype": {"type": "DT_FLOAT"}}}, {"name": "StatefulPartitionedCall/pip_line_explode_model/time_series_transformer/transformer_decoder_layer_3/layer_normalization_11/batchnorm/ReadVariableOp", "op": "Const", "attr": {"value": {"tensor": {"dtype": "DT_FLOAT", "tensorShape": {"dim": [{"size": "256"}]}}}, "dtype": {"type": "DT_FLOAT"}}}, {"name": "StatefulPartitionedCall/pip_line_explode_model/time_series_transformer/transformer_decoder_layer_3/sequential_3/dense_9/Tensordot/Const", "op": "Const", "attr": {"value": {"tensor": {"dtype": "DT_INT32", "tensorShape": {"dim": [{"size": "1"}]}}}, "dtype": {"type": "DT_INT32"}}}, {"name": "StatefulPartitionedCall/pip_line_explode_model/time_series_transformer/transformer_decoder_layer_3/sequential_3/dense_9/Tensordot/axes", "op": "Const", "attr": {"value": {"tensor": {"dtype": "DT_INT32", "tensorShape": {"dim": [{"size": "1"}]}}}, "dtype": {"type": "DT_INT32"}}}, {"name": "StatefulPartitionedCall/pip_line_explode_model/time_series_transformer/transformer_decoder_layer_3/sequential_3/dense_9/Tensordot/GatherV2_1/axis", "op": "Const", "attr": {"value": {"tensor": {"dtype": "DT_INT32", "tensorShape": {}}}, "dtype": {"type": "DT_INT32"}}}, {"name": "StatefulPartitionedCall/pip_line_explode_model/time_series_transformer/transformer_decoder_layer_3/sequential_3/dense_9/Tensordot/Const_1", "op": "Const", "attr": {"value": {"tensor": {"dtype": "DT_INT32", "tensorShape": {"dim": [{"size": "1"}]}}}, "dtype": {"type": "DT_INT32"}}}, {"name": "StatefulPartitionedCall/pip_line_explode_model/time_series_transformer/transformer_decoder_layer_3/sequential_3/dense_9/Tensordot/ReadVariableOp", "op": "Const", "attr": {"value": {"tensor": {"dtype": "DT_FLOAT", "tensorShape": {"dim": [{"size": "512"}, {"size": "256"}]}}}, "dtype": {"type": "DT_FLOAT"}}}, {"name": "StatefulPartitionedCall/pip_line_explode_model/time_series_transformer/transformer_decoder_layer_3/sequential_3/dense_8/Tensordot/Const", "op": "Const", "attr": {"value": {"tensor": {"dtype": "DT_INT32", "tensorShape": {"dim": [{"size": "1"}]}}}, "dtype": {"type": "DT_INT32"}}}, {"name": "StatefulPartitionedCall/pip_line_explode_model/time_series_transformer/transformer_decoder_layer_3/sequential_3/dense_8/Tensordot/axes", "op": "Const", "attr": {"value": {"tensor": {"dtype": "DT_INT32", "tensorShape": {"dim": [{"size": "1"}]}}}, "dtype": {"type": "DT_INT32"}}}, {"name": "StatefulPartitionedCall/pip_line_explode_model/time_series_transformer/transformer_decoder_layer_3/sequential_3/dense_8/Tensordot/GatherV2_1/axis", "op": "Const", "attr": {"value": {"tensor": {"dtype": "DT_INT32", "tensorShape": {}}}, "dtype": {"type": "DT_INT32"}}}, {"name": "StatefulPartitionedCall/pip_line_explode_model/time_series_transformer/transformer_decoder_layer_3/sequential_3/dense_8/Tensordot/Const_1", "op": "Const", "attr": {"value": {"tensor": {"dtype": "DT_INT32", "tensorShape": {"dim": [{"size": "1"}]}}}, "dtype": {"type": "DT_INT32"}}}, {"name": "StatefulPartitionedCall/pip_line_explode_model/time_series_transformer/transformer_decoder_layer_3/sequential_3/dense_8/Tensordot/ReadVariableOp", "op": "Const", "attr": {"value": {"tensor": {"dtype": "DT_FLOAT", "tensorShape": {"dim": [{"size": "256"}, {"size": "512"}]}}}, "dtype": {"type": "DT_FLOAT"}}}, {"name": "StatefulPartitionedCall/pip_line_explode_model/time_series_transformer/transformer_decoder_layer_3/layer_normalization_10/batchnorm/ReadVariableOp", "op": "Const", "attr": {"value": {"tensor": {"dtype": "DT_FLOAT", "tensorShape": {"dim": [{"size": "256"}]}}}, "dtype": {"type": "DT_FLOAT"}}}, {"name": "StatefulPartitionedCall/pip_line_explode_model/time_series_transformer/transformer_decoder_layer_3/multi_head_attention_7/attention_output/add/ReadVariableOp", "op": "Const", "attr": {"value": {"tensor": {"dtype": "DT_FLOAT", "tensorShape": {"dim": [{"size": "256"}]}}}, "dtype": {"type": "DT_FLOAT"}}}, {"name": "StatefulPartitionedCall/pip_line_explode_model/time_series_transformer/transformer_decoder_layer_3/multi_head_attention_7/key/einsum/Einsum/ReadVariableOp", "op": "Const", "attr": {"value": {"tensor": {"dtype": "DT_FLOAT", "tensorShape": {"dim": [{"size": "256"}, {"size": "8"}, {"size": "32"}]}}}, "dtype": {"type": "DT_FLOAT"}}}, {"name": "StatefulPartitionedCall/pip_line_explode_model/time_series_transformer/transformer_decoder_layer_3/multi_head_attention_7/key/add/ReadVariableOp", "op": "Const", "attr": {"value": {"tensor": {"dtype": "DT_FLOAT", "tensorShape": {"dim": [{"size": "8"}, {"size": "32"}]}}}, "dtype": {"type": "DT_FLOAT"}}}, {"name": "StatefulPartitionedCall/pip_line_explode_model/time_series_transformer/transformer_decoder_layer_3/layer_normalization_9/batchnorm/ReadVariableOp", "op": "Const", "attr": {"value": {"tensor": {"dtype": "DT_FLOAT", "tensorShape": {"dim": [{"size": "256"}]}}}, "dtype": {"type": "DT_FLOAT"}}}, {"name": "StatefulPartitionedCall/pip_line_explode_model/time_series_transformer/transformer_decoder_layer_3/multi_head_attention_6/attention_output/add/ReadVariableOp", "op": "Const", "attr": {"value": {"tensor": {"dtype": "DT_FLOAT", "tensorShape": {"dim": [{"size": "256"}]}}}, "dtype": {"type": "DT_FLOAT"}}}, {"name": "StatefulPartitionedCall/pip_line_explode_model/time_series_transformer/transformer_decoder_layer_3/multi_head_attention_6/key/einsum/Einsum/ReadVariableOp", "op": "Const", "attr": {"value": {"tensor": {"dtype": "DT_FLOAT", "tensorShape": {"dim": [{"size": "256"}, {"size": "8"}, {"size": "32"}]}}}, "dtype": {"type": "DT_FLOAT"}}}, {"name": "StatefulPartitionedCall/pip_line_explode_model/time_series_transformer/transformer_decoder_layer_3/multi_head_attention_6/key/add/ReadVariableOp", "op": "Const", "attr": {"value": {"tensor": {"dtype": "DT_FLOAT", "tensorShape": {"dim": [{"size": "8"}, {"size": "32"}]}}}, "dtype": {"type": "DT_FLOAT"}}}, {"name": "StatefulPartitionedCall/pip_line_explode_model/time_series_transformer/transformer_decoder_layer_3/multi_head_attention_6/query/einsum/Einsum/ReadVariableOp", "op": "Const", "attr": {"value": {"tensor": {"dtype": "DT_FLOAT", "tensorShape": {"dim": [{"size": "256"}, {"size": "8"}, {"size": "32"}]}}}, "dtype": {"type": "DT_FLOAT"}}}, {"name": "StatefulPartitionedCall/pip_line_explode_model/time_series_transformer/transformer_decoder_layer_3/multi_head_attention_6/query/add/ReadVariableOp", "op": "Const", "attr": {"value": {"tensor": {"dtype": "DT_FLOAT", "tensorShape": {"dim": [{"size": "8"}, {"size": "32"}]}}}, "dtype": {"type": "DT_FLOAT"}}}, {"name": "StatefulPartitionedCall/pip_line_explode_model/time_series_transformer/transformer_decoder_layer_3/multi_head_attention_6/Mul/y", "op": "Const", "attr": {"value": {"tensor": {"dtype": "DT_FLOAT", "tensorShape": {}}}, "dtype": {"type": "DT_FLOAT"}}}, {"name": "StatefulPartitionedCall/pip_line_explode_model/time_series_transformer/transformer_decoder_layer_3/multi_head_attention_6/softmax_6/mul", "op": "Const", "attr": {"value": {"tensor": {"dtype": "DT_FLOAT", "tensorShape": {"dim": [{"size": "1"}, {"size": "1"}, {"size": "31"}, {"size": "31"}]}}}, "dtype": {"type": "DT_FLOAT"}}}, {"name": "StatefulPartitionedCall/pip_line_explode_model/time_series_transformer/transformer_decoder_layer_3/multi_head_attention_6/value/einsum/Einsum/ReadVariableOp", "op": "Const", "attr": {"value": {"tensor": {"dtype": "DT_FLOAT", "tensorShape": {"dim": [{"size": "256"}, {"size": "8"}, {"size": "32"}]}}}, "dtype": {"type": "DT_FLOAT"}}}, {"name": "StatefulPartitionedCall/pip_line_explode_model/time_series_transformer/transformer_decoder_layer_3/multi_head_attention_6/value/add/ReadVariableOp", "op": "Const", "attr": {"value": {"tensor": {"dtype": "DT_FLOAT", "tensorShape": {"dim": [{"size": "8"}, {"size": "32"}]}}}, "dtype": {"type": "DT_FLOAT"}}}, {"name": "StatefulPartitionedCall/pip_line_explode_model/time_series_transformer/transformer_decoder_layer_3/multi_head_attention_6/attention_output/einsum/Einsum/ReadVariableOp", "op": "Const", "attr": {"value": {"tensor": {"dtype": "DT_FLOAT", "tensorShape": {"dim": [{"size": "8"}, {"size": "32"}, {"size": "256"}]}}}, "dtype": {"type": "DT_FLOAT"}}}, {"name": "StatefulPartitionedCall/pip_line_explode_model/time_series_transformer/transformer_decoder_layer_3/layer_normalization_9/moments/mean/reduction_indices", "op": "Const", "attr": {"value": {"tensor": {"dtype": "DT_INT32", "tensorShape": {"dim": [{"size": "1"}]}}}, "dtype": {"type": "DT_INT32"}}}, {"name": "StatefulPartitionedCall/pip_line_explode_model/time_series_transformer/transformer_decoder_layer_3/layer_normalization_9/moments/variance/reduction_indices", "op": "Const", "attr": {"value": {"tensor": {"dtype": "DT_INT32", "tensorShape": {"dim": [{"size": "1"}]}}}, "dtype": {"type": "DT_INT32"}}}, {"name": "StatefulPartitionedCall/pip_line_explode_model/time_series_transformer/transformer_decoder_layer_3/layer_normalization_9/batchnorm/add/y", "op": "Const", "attr": {"value": {"tensor": {"dtype": "DT_FLOAT", "tensorShape": {}}}, "dtype": {"type": "DT_FLOAT"}}}, {"name": "StatefulPartitionedCall/pip_line_explode_model/time_series_transformer/transformer_decoder_layer_3/layer_normalization_9/batchnorm/mul/ReadVariableOp", "op": "Const", "attr": {"value": {"tensor": {"dtype": "DT_FLOAT", "tensorShape": {"dim": [{"size": "256"}]}}}, "dtype": {"type": "DT_FLOAT"}}}, {"name": "StatefulPartitionedCall/pip_line_explode_model/time_series_transformer/transformer_decoder_layer_3/multi_head_attention_7/query/einsum/Einsum/ReadVariableOp", "op": "Const", "attr": {"value": {"tensor": {"dtype": "DT_FLOAT", "tensorShape": {"dim": [{"size": "256"}, {"size": "8"}, {"size": "32"}]}}}, "dtype": {"type": "DT_FLOAT"}}}, {"name": "StatefulPartitionedCall/pip_line_explode_model/time_series_transformer/transformer_decoder_layer_3/multi_head_attention_7/query/add/ReadVariableOp", "op": "Const", "attr": {"value": {"tensor": {"dtype": "DT_FLOAT", "tensorShape": {"dim": [{"size": "8"}, {"size": "32"}]}}}, "dtype": {"type": "DT_FLOAT"}}}, {"name": "StatefulPartitionedCall/pip_line_explode_model/time_series_transformer/transformer_decoder_layer_3/multi_head_attention_7/Mul/y", "op": "Const", "attr": {"value": {"tensor": {"dtype": "DT_FLOAT", "tensorShape": {}}}, "dtype": {"type": "DT_FLOAT"}}}, {"name": "StatefulPartitionedCall/pip_line_explode_model/time_series_transformer/transformer_decoder_layer_2/layer_normalization_8/batchnorm/ReadVariableOp", "op": "Const", "attr": {"value": {"tensor": {"dtype": "DT_FLOAT", "tensorShape": {"dim": [{"size": "256"}]}}}, "dtype": {"type": "DT_FLOAT"}}}, {"name": "StatefulPartitionedCall/pip_line_explode_model/time_series_transformer/transformer_decoder_layer_2/sequential_2/dense_7/Tensordot/Const", "op": "Const", "attr": {"value": {"tensor": {"dtype": "DT_INT32", "tensorShape": {"dim": [{"size": "1"}]}}}, "dtype": {"type": "DT_INT32"}}}, {"name": "StatefulPartitionedCall/pip_line_explode_model/time_series_transformer/transformer_decoder_layer_2/sequential_2/dense_7/Tensordot/axes", "op": "Const", "attr": {"value": {"tensor": {"dtype": "DT_INT32", "tensorShape": {"dim": [{"size": "1"}]}}}, "dtype": {"type": "DT_INT32"}}}, {"name": "StatefulPartitionedCall/pip_line_explode_model/time_series_transformer/transformer_decoder_layer_2/sequential_2/dense_7/Tensordot/GatherV2_1/axis", "op": "Const", "attr": {"value": {"tensor": {"dtype": "DT_INT32", "tensorShape": {}}}, "dtype": {"type": "DT_INT32"}}}, {"name": "StatefulPartitionedCall/pip_line_explode_model/time_series_transformer/transformer_decoder_layer_2/sequential_2/dense_7/Tensordot/Const_1", "op": "Const", "attr": {"value": {"tensor": {"dtype": "DT_INT32", "tensorShape": {"dim": [{"size": "1"}]}}}, "dtype": {"type": "DT_INT32"}}}, {"name": "StatefulPartitionedCall/pip_line_explode_model/time_series_transformer/transformer_decoder_layer_2/sequential_2/dense_7/Tensordot/ReadVariableOp", "op": "Const", "attr": {"value": {"tensor": {"dtype": "DT_FLOAT", "tensorShape": {"dim": [{"size": "512"}, {"size": "256"}]}}}, "dtype": {"type": "DT_FLOAT"}}}, {"name": "StatefulPartitionedCall/pip_line_explode_model/time_series_transformer/transformer_decoder_layer_2/sequential_2/dense_6/Tensordot/Const", "op": "Const", "attr": {"value": {"tensor": {"dtype": "DT_INT32", "tensorShape": {"dim": [{"size": "1"}]}}}, "dtype": {"type": "DT_INT32"}}}, {"name": "StatefulPartitionedCall/pip_line_explode_model/time_series_transformer/transformer_decoder_layer_2/sequential_2/dense_6/Tensordot/axes", "op": "Const", "attr": {"value": {"tensor": {"dtype": "DT_INT32", "tensorShape": {"dim": [{"size": "1"}]}}}, "dtype": {"type": "DT_INT32"}}}, {"name": "StatefulPartitionedCall/pip_line_explode_model/time_series_transformer/transformer_decoder_layer_2/sequential_2/dense_6/Tensordot/GatherV2_1/axis", "op": "Const", "attr": {"value": {"tensor": {"dtype": "DT_INT32", "tensorShape": {}}}, "dtype": {"type": "DT_INT32"}}}, {"name": "StatefulPartitionedCall/pip_line_explode_model/time_series_transformer/transformer_decoder_layer_2/sequential_2/dense_6/Tensordot/Const_1", "op": "Const", "attr": {"value": {"tensor": {"dtype": "DT_INT32", "tensorShape": {"dim": [{"size": "1"}]}}}, "dtype": {"type": "DT_INT32"}}}, {"name": "StatefulPartitionedCall/pip_line_explode_model/time_series_transformer/transformer_decoder_layer_2/sequential_2/dense_6/Tensordot/ReadVariableOp", "op": "Const", "attr": {"value": {"tensor": {"dtype": "DT_FLOAT", "tensorShape": {"dim": [{"size": "256"}, {"size": "512"}]}}}, "dtype": {"type": "DT_FLOAT"}}}, {"name": "StatefulPartitionedCall/pip_line_explode_model/time_series_transformer/transformer_decoder_layer_2/layer_normalization_7/batchnorm/ReadVariableOp", "op": "Const", "attr": {"value": {"tensor": {"dtype": "DT_FLOAT", "tensorShape": {"dim": [{"size": "256"}]}}}, "dtype": {"type": "DT_FLOAT"}}}, {"name": "StatefulPartitionedCall/pip_line_explode_model/time_series_transformer/transformer_decoder_layer_2/multi_head_attention_5/attention_output/add/ReadVariableOp", "op": "Const", "attr": {"value": {"tensor": {"dtype": "DT_FLOAT", "tensorShape": {"dim": [{"size": "256"}]}}}, "dtype": {"type": "DT_FLOAT"}}}, {"name": "StatefulPartitionedCall/pip_line_explode_model/time_series_transformer/transformer_decoder_layer_2/multi_head_attention_5/key/einsum/Einsum/ReadVariableOp", "op": "Const", "attr": {"value": {"tensor": {"dtype": "DT_FLOAT", "tensorShape": {"dim": [{"size": "256"}, {"size": "8"}, {"size": "32"}]}}}, "dtype": {"type": "DT_FLOAT"}}}, {"name": "StatefulPartitionedCall/pip_line_explode_model/time_series_transformer/transformer_decoder_layer_2/multi_head_attention_5/key/add/ReadVariableOp", "op": "Const", "attr": {"value": {"tensor": {"dtype": "DT_FLOAT", "tensorShape": {"dim": [{"size": "8"}, {"size": "32"}]}}}, "dtype": {"type": "DT_FLOAT"}}}, {"name": "StatefulPartitionedCall/pip_line_explode_model/time_series_transformer/transformer_decoder_layer_2/layer_normalization_6/batchnorm/ReadVariableOp", "op": "Const", "attr": {"value": {"tensor": {"dtype": "DT_FLOAT", "tensorShape": {"dim": [{"size": "256"}]}}}, "dtype": {"type": "DT_FLOAT"}}}, {"name": "StatefulPartitionedCall/pip_line_explode_model/time_series_transformer/transformer_decoder_layer_2/multi_head_attention_4/attention_output/add/ReadVariableOp", "op": "Const", "attr": {"value": {"tensor": {"dtype": "DT_FLOAT", "tensorShape": {"dim": [{"size": "256"}]}}}, "dtype": {"type": "DT_FLOAT"}}}, {"name": "StatefulPartitionedCall/pip_line_explode_model/time_series_transformer/transformer_decoder_layer_2/multi_head_attention_4/key/einsum/Einsum/ReadVariableOp", "op": "Const", "attr": {"value": {"tensor": {"dtype": "DT_FLOAT", "tensorShape": {"dim": [{"size": "256"}, {"size": "8"}, {"size": "32"}]}}}, "dtype": {"type": "DT_FLOAT"}}}, {"name": "StatefulPartitionedCall/pip_line_explode_model/time_series_transformer/transformer_decoder_layer_2/multi_head_attention_4/key/add/ReadVariableOp", "op": "Const", "attr": {"value": {"tensor": {"dtype": "DT_FLOAT", "tensorShape": {"dim": [{"size": "8"}, {"size": "32"}]}}}, "dtype": {"type": "DT_FLOAT"}}}, {"name": "StatefulPartitionedCall/pip_line_explode_model/time_series_transformer/transformer_decoder_layer_2/multi_head_attention_4/query/einsum/Einsum/ReadVariableOp", "op": "Const", "attr": {"value": {"tensor": {"dtype": "DT_FLOAT", "tensorShape": {"dim": [{"size": "256"}, {"size": "8"}, {"size": "32"}]}}}, "dtype": {"type": "DT_FLOAT"}}}, {"name": "StatefulPartitionedCall/pip_line_explode_model/time_series_transformer/transformer_decoder_layer_2/multi_head_attention_4/query/add/ReadVariableOp", "op": "Const", "attr": {"value": {"tensor": {"dtype": "DT_FLOAT", "tensorShape": {"dim": [{"size": "8"}, {"size": "32"}]}}}, "dtype": {"type": "DT_FLOAT"}}}, {"name": "StatefulPartitionedCall/pip_line_explode_model/time_series_transformer/transformer_decoder_layer_2/multi_head_attention_4/Mul/y", "op": "Const", "attr": {"value": {"tensor": {"dtype": "DT_FLOAT", "tensorShape": {}}}, "dtype": {"type": "DT_FLOAT"}}}, {"name": "StatefulPartitionedCall/pip_line_explode_model/time_series_transformer/transformer_decoder_layer_2/multi_head_attention_4/softmax_4/mul", "op": "Const", "attr": {"value": {"tensor": {"dtype": "DT_FLOAT", "tensorShape": {"dim": [{"size": "1"}, {"size": "1"}, {"size": "31"}, {"size": "31"}]}}}, "dtype": {"type": "DT_FLOAT"}}}, {"name": "StatefulPartitionedCall/pip_line_explode_model/time_series_transformer/transformer_decoder_layer_2/multi_head_attention_4/value/einsum/Einsum/ReadVariableOp", "op": "Const", "attr": {"value": {"tensor": {"dtype": "DT_FLOAT", "tensorShape": {"dim": [{"size": "256"}, {"size": "8"}, {"size": "32"}]}}}, "dtype": {"type": "DT_FLOAT"}}}, {"name": "StatefulPartitionedCall/pip_line_explode_model/time_series_transformer/transformer_decoder_layer_2/multi_head_attention_4/value/add/ReadVariableOp", "op": "Const", "attr": {"value": {"tensor": {"dtype": "DT_FLOAT", "tensorShape": {"dim": [{"size": "8"}, {"size": "32"}]}}}, "dtype": {"type": "DT_FLOAT"}}}, {"name": "StatefulPartitionedCall/pip_line_explode_model/time_series_transformer/transformer_decoder_layer_2/multi_head_attention_4/attention_output/einsum/Einsum/ReadVariableOp", "op": "Const", "attr": {"value": {"tensor": {"dtype": "DT_FLOAT", "tensorShape": {"dim": [{"size": "8"}, {"size": "32"}, {"size": "256"}]}}}, "dtype": {"type": "DT_FLOAT"}}}, {"name": "StatefulPartitionedCall/pip_line_explode_model/time_series_transformer/transformer_decoder_layer_2/layer_normalization_6/moments/mean/reduction_indices", "op": "Const", "attr": {"value": {"tensor": {"dtype": "DT_INT32", "tensorShape": {"dim": [{"size": "1"}]}}}, "dtype": {"type": "DT_INT32"}}}, {"name": "StatefulPartitionedCall/pip_line_explode_model/time_series_transformer/transformer_decoder_layer_2/layer_normalization_6/moments/variance/reduction_indices", "op": "Const", "attr": {"value": {"tensor": {"dtype": "DT_INT32", "tensorShape": {"dim": [{"size": "1"}]}}}, "dtype": {"type": "DT_INT32"}}}, {"name": "StatefulPartitionedCall/pip_line_explode_model/time_series_transformer/transformer_decoder_layer_2/layer_normalization_6/batchnorm/add/y", "op": "Const", "attr": {"value": {"tensor": {"dtype": "DT_FLOAT", "tensorShape": {}}}, "dtype": {"type": "DT_FLOAT"}}}, {"name": "StatefulPartitionedCall/pip_line_explode_model/time_series_transformer/transformer_decoder_layer_2/layer_normalization_6/batchnorm/mul/ReadVariableOp", "op": "Const", "attr": {"value": {"tensor": {"dtype": "DT_FLOAT", "tensorShape": {"dim": [{"size": "256"}]}}}, "dtype": {"type": "DT_FLOAT"}}}, {"name": "StatefulPartitionedCall/pip_line_explode_model/time_series_transformer/transformer_decoder_layer_2/multi_head_attention_5/query/einsum/Einsum/ReadVariableOp", "op": "Const", "attr": {"value": {"tensor": {"dtype": "DT_FLOAT", "tensorShape": {"dim": [{"size": "256"}, {"size": "8"}, {"size": "32"}]}}}, "dtype": {"type": "DT_FLOAT"}}}, {"name": "StatefulPartitionedCall/pip_line_explode_model/time_series_transformer/transformer_decoder_layer_2/multi_head_attention_5/query/add/ReadVariableOp", "op": "Const", "attr": {"value": {"tensor": {"dtype": "DT_FLOAT", "tensorShape": {"dim": [{"size": "8"}, {"size": "32"}]}}}, "dtype": {"type": "DT_FLOAT"}}}, {"name": "StatefulPartitionedCall/pip_line_explode_model/time_series_transformer/transformer_decoder_layer_2/multi_head_attention_5/Mul/y", "op": "Const", "attr": {"value": {"tensor": {"dtype": "DT_FLOAT", "tensorShape": {}}}, "dtype": {"type": "DT_FLOAT"}}}, {"name": "StatefulPartitionedCall/pip_line_explode_model/time_series_transformer/transformer_decoder_layer_1/layer_normalization_5/batchnorm/ReadVariableOp", "op": "Const", "attr": {"value": {"tensor": {"dtype": "DT_FLOAT", "tensorShape": {"dim": [{"size": "256"}]}}}, "dtype": {"type": "DT_FLOAT"}}}, {"name": "StatefulPartitionedCall/pip_line_explode_model/time_series_transformer/transformer_decoder_layer_1/sequential_1/dense_5/Tensordot/Const", "op": "Const", "attr": {"value": {"tensor": {"dtype": "DT_INT32", "tensorShape": {"dim": [{"size": "1"}]}}}, "dtype": {"type": "DT_INT32"}}}, {"name": "StatefulPartitionedCall/pip_line_explode_model/time_series_transformer/transformer_decoder_layer_1/sequential_1/dense_5/Tensordot/axes", "op": "Const", "attr": {"value": {"tensor": {"dtype": "DT_INT32", "tensorShape": {"dim": [{"size": "1"}]}}}, "dtype": {"type": "DT_INT32"}}}, {"name": "StatefulPartitionedCall/pip_line_explode_model/time_series_transformer/transformer_decoder_layer_1/sequential_1/dense_5/Tensordot/GatherV2_1/axis", "op": "Const", "attr": {"value": {"tensor": {"dtype": "DT_INT32", "tensorShape": {}}}, "dtype": {"type": "DT_INT32"}}}, {"name": "StatefulPartitionedCall/pip_line_explode_model/time_series_transformer/transformer_decoder_layer_1/sequential_1/dense_5/Tensordot/Const_1", "op": "Const", "attr": {"value": {"tensor": {"dtype": "DT_INT32", "tensorShape": {"dim": [{"size": "1"}]}}}, "dtype": {"type": "DT_INT32"}}}, {"name": "StatefulPartitionedCall/pip_line_explode_model/time_series_transformer/transformer_decoder_layer_1/sequential_1/dense_5/Tensordot/ReadVariableOp", "op": "Const", "attr": {"value": {"tensor": {"dtype": "DT_FLOAT", "tensorShape": {"dim": [{"size": "512"}, {"size": "256"}]}}}, "dtype": {"type": "DT_FLOAT"}}}, {"name": "StatefulPartitionedCall/pip_line_explode_model/time_series_transformer/transformer_decoder_layer_1/sequential_1/dense_4/Tensordot/Const", "op": "Const", "attr": {"value": {"tensor": {"dtype": "DT_INT32", "tensorShape": {"dim": [{"size": "1"}]}}}, "dtype": {"type": "DT_INT32"}}}, {"name": "StatefulPartitionedCall/pip_line_explode_model/time_series_transformer/transformer_decoder_layer_1/sequential_1/dense_4/Tensordot/axes", "op": "Const", "attr": {"value": {"tensor": {"dtype": "DT_INT32", "tensorShape": {"dim": [{"size": "1"}]}}}, "dtype": {"type": "DT_INT32"}}}, {"name": "StatefulPartitionedCall/pip_line_explode_model/time_series_transformer/transformer_decoder_layer_1/sequential_1/dense_4/Tensordot/GatherV2_1/axis", "op": "Const", "attr": {"value": {"tensor": {"dtype": "DT_INT32", "tensorShape": {}}}, "dtype": {"type": "DT_INT32"}}}, {"name": "StatefulPartitionedCall/pip_line_explode_model/time_series_transformer/transformer_decoder_layer_1/sequential_1/dense_4/Tensordot/Const_1", "op": "Const", "attr": {"value": {"tensor": {"dtype": "DT_INT32", "tensorShape": {"dim": [{"size": "1"}]}}}, "dtype": {"type": "DT_INT32"}}}, {"name": "StatefulPartitionedCall/pip_line_explode_model/time_series_transformer/transformer_decoder_layer_1/sequential_1/dense_4/Tensordot/ReadVariableOp", "op": "Const", "attr": {"value": {"tensor": {"dtype": "DT_FLOAT", "tensorShape": {"dim": [{"size": "256"}, {"size": "512"}]}}}, "dtype": {"type": "DT_FLOAT"}}}, {"name": "StatefulPartitionedCall/pip_line_explode_model/time_series_transformer/transformer_decoder_layer_1/layer_normalization_4/batchnorm/ReadVariableOp", "op": "Const", "attr": {"value": {"tensor": {"dtype": "DT_FLOAT", "tensorShape": {"dim": [{"size": "256"}]}}}, "dtype": {"type": "DT_FLOAT"}}}, {"name": "StatefulPartitionedCall/pip_line_explode_model/time_series_transformer/transformer_decoder_layer_1/multi_head_attention_3/attention_output/add/ReadVariableOp", "op": "Const", "attr": {"value": {"tensor": {"dtype": "DT_FLOAT", "tensorShape": {"dim": [{"size": "256"}]}}}, "dtype": {"type": "DT_FLOAT"}}}, {"name": "StatefulPartitionedCall/pip_line_explode_model/time_series_transformer/transformer_decoder_layer_1/multi_head_attention_3/key/einsum/Einsum/ReadVariableOp", "op": "Const", "attr": {"value": {"tensor": {"dtype": "DT_FLOAT", "tensorShape": {"dim": [{"size": "256"}, {"size": "8"}, {"size": "32"}]}}}, "dtype": {"type": "DT_FLOAT"}}}, {"name": "StatefulPartitionedCall/pip_line_explode_model/time_series_transformer/transformer_decoder_layer_1/multi_head_attention_3/key/add/ReadVariableOp", "op": "Const", "attr": {"value": {"tensor": {"dtype": "DT_FLOAT", "tensorShape": {"dim": [{"size": "8"}, {"size": "32"}]}}}, "dtype": {"type": "DT_FLOAT"}}}, {"name": "StatefulPartitionedCall/pip_line_explode_model/time_series_transformer/transformer_decoder_layer_1/layer_normalization_3/batchnorm/ReadVariableOp", "op": "Const", "attr": {"value": {"tensor": {"dtype": "DT_FLOAT", "tensorShape": {"dim": [{"size": "256"}]}}}, "dtype": {"type": "DT_FLOAT"}}}, {"name": "StatefulPartitionedCall/pip_line_explode_model/time_series_transformer/transformer_decoder_layer_1/multi_head_attention_2/attention_output/add/ReadVariableOp", "op": "Const", "attr": {"value": {"tensor": {"dtype": "DT_FLOAT", "tensorShape": {"dim": [{"size": "256"}]}}}, "dtype": {"type": "DT_FLOAT"}}}, {"name": "StatefulPartitionedCall/pip_line_explode_model/time_series_transformer/transformer_decoder_layer_1/multi_head_attention_2/key/einsum/Einsum/ReadVariableOp", "op": "Const", "attr": {"value": {"tensor": {"dtype": "DT_FLOAT", "tensorShape": {"dim": [{"size": "256"}, {"size": "8"}, {"size": "32"}]}}}, "dtype": {"type": "DT_FLOAT"}}}, {"name": "StatefulPartitionedCall/pip_line_explode_model/time_series_transformer/transformer_decoder_layer_1/multi_head_attention_2/key/add/ReadVariableOp", "op": "Const", "attr": {"value": {"tensor": {"dtype": "DT_FLOAT", "tensorShape": {"dim": [{"size": "8"}, {"size": "32"}]}}}, "dtype": {"type": "DT_FLOAT"}}}, {"name": "StatefulPartitionedCall/pip_line_explode_model/time_series_transformer/transformer_decoder_layer_1/multi_head_attention_2/query/einsum/Einsum/ReadVariableOp", "op": "Const", "attr": {"value": {"tensor": {"dtype": "DT_FLOAT", "tensorShape": {"dim": [{"size": "256"}, {"size": "8"}, {"size": "32"}]}}}, "dtype": {"type": "DT_FLOAT"}}}, {"name": "StatefulPartitionedCall/pip_line_explode_model/time_series_transformer/transformer_decoder_layer_1/multi_head_attention_2/query/add/ReadVariableOp", "op": "Const", "attr": {"value": {"tensor": {"dtype": "DT_FLOAT", "tensorShape": {"dim": [{"size": "8"}, {"size": "32"}]}}}, "dtype": {"type": "DT_FLOAT"}}}, {"name": "StatefulPartitionedCall/pip_line_explode_model/time_series_transformer/transformer_decoder_layer_1/multi_head_attention_2/Mul/y", "op": "Const", "attr": {"value": {"tensor": {"dtype": "DT_FLOAT", "tensorShape": {}}}, "dtype": {"type": "DT_FLOAT"}}}, {"name": "StatefulPartitionedCall/pip_line_explode_model/time_series_transformer/transformer_decoder_layer_1/multi_head_attention_2/softmax_2/mul", "op": "Const", "attr": {"value": {"tensor": {"dtype": "DT_FLOAT", "tensorShape": {"dim": [{"size": "1"}, {"size": "1"}, {"size": "31"}, {"size": "31"}]}}}, "dtype": {"type": "DT_FLOAT"}}}, {"name": "StatefulPartitionedCall/pip_line_explode_model/time_series_transformer/transformer_decoder_layer_1/multi_head_attention_2/value/einsum/Einsum/ReadVariableOp", "op": "Const", "attr": {"value": {"tensor": {"dtype": "DT_FLOAT", "tensorShape": {"dim": [{"size": "256"}, {"size": "8"}, {"size": "32"}]}}}, "dtype": {"type": "DT_FLOAT"}}}, {"name": "StatefulPartitionedCall/pip_line_explode_model/time_series_transformer/transformer_decoder_layer_1/multi_head_attention_2/value/add/ReadVariableOp", "op": "Const", "attr": {"value": {"tensor": {"dtype": "DT_FLOAT", "tensorShape": {"dim": [{"size": "8"}, {"size": "32"}]}}}, "dtype": {"type": "DT_FLOAT"}}}, {"name": "StatefulPartitionedCall/pip_line_explode_model/time_series_transformer/transformer_decoder_layer_1/multi_head_attention_2/attention_output/einsum/Einsum/ReadVariableOp", "op": "Const", "attr": {"value": {"tensor": {"dtype": "DT_FLOAT", "tensorShape": {"dim": [{"size": "8"}, {"size": "32"}, {"size": "256"}]}}}, "dtype": {"type": "DT_FLOAT"}}}, {"name": "StatefulPartitionedCall/pip_line_explode_model/time_series_transformer/transformer_decoder_layer_1/layer_normalization_3/moments/mean/reduction_indices", "op": "Const", "attr": {"value": {"tensor": {"dtype": "DT_INT32", "tensorShape": {"dim": [{"size": "1"}]}}}, "dtype": {"type": "DT_INT32"}}}, {"name": "StatefulPartitionedCall/pip_line_explode_model/time_series_transformer/transformer_decoder_layer_1/layer_normalization_3/moments/variance/reduction_indices", "op": "Const", "attr": {"value": {"tensor": {"dtype": "DT_INT32", "tensorShape": {"dim": [{"size": "1"}]}}}, "dtype": {"type": "DT_INT32"}}}, {"name": "StatefulPartitionedCall/pip_line_explode_model/time_series_transformer/transformer_decoder_layer_1/layer_normalization_3/batchnorm/add/y", "op": "Const", "attr": {"value": {"tensor": {"dtype": "DT_FLOAT", "tensorShape": {}}}, "dtype": {"type": "DT_FLOAT"}}}, {"name": "StatefulPartitionedCall/pip_line_explode_model/time_series_transformer/transformer_decoder_layer_1/layer_normalization_3/batchnorm/mul/ReadVariableOp", "op": "Const", "attr": {"value": {"tensor": {"dtype": "DT_FLOAT", "tensorShape": {"dim": [{"size": "256"}]}}}, "dtype": {"type": "DT_FLOAT"}}}, {"name": "StatefulPartitionedCall/pip_line_explode_model/time_series_transformer/transformer_decoder_layer_1/multi_head_attention_3/query/einsum/Einsum/ReadVariableOp", "op": "Const", "attr": {"value": {"tensor": {"dtype": "DT_FLOAT", "tensorShape": {"dim": [{"size": "256"}, {"size": "8"}, {"size": "32"}]}}}, "dtype": {"type": "DT_FLOAT"}}}, {"name": "StatefulPartitionedCall/pip_line_explode_model/time_series_transformer/transformer_decoder_layer_1/multi_head_attention_3/query/add/ReadVariableOp", "op": "Const", "attr": {"value": {"tensor": {"dtype": "DT_FLOAT", "tensorShape": {"dim": [{"size": "8"}, {"size": "32"}]}}}, "dtype": {"type": "DT_FLOAT"}}}, {"name": "StatefulPartitionedCall/pip_line_explode_model/time_series_transformer/transformer_decoder_layer_1/multi_head_attention_3/Mul/y", "op": "Const", "attr": {"value": {"tensor": {"dtype": "DT_FLOAT", "tensorShape": {}}}, "dtype": {"type": "DT_FLOAT"}}}, {"name": "StatefulPartitionedCall/pip_line_explode_model/time_series_transformer/transformer_decoder_layer/layer_normalization_2/batchnorm/ReadVariableOp", "op": "Const", "attr": {"value": {"tensor": {"dtype": "DT_FLOAT", "tensorShape": {"dim": [{"size": "256"}]}}}, "dtype": {"type": "DT_FLOAT"}}}, {"name": "StatefulPartitionedCall/pip_line_explode_model/time_series_transformer/transformer_decoder_layer/sequential/dense_3/Tensordot/Const", "op": "Const", "attr": {"value": {"tensor": {"dtype": "DT_INT32", "tensorShape": {"dim": [{"size": "1"}]}}}, "dtype": {"type": "DT_INT32"}}}, {"name": "StatefulPartitionedCall/pip_line_explode_model/time_series_transformer/transformer_decoder_layer/sequential/dense_3/Tensordot/axes", "op": "Const", "attr": {"value": {"tensor": {"dtype": "DT_INT32", "tensorShape": {"dim": [{"size": "1"}]}}}, "dtype": {"type": "DT_INT32"}}}, {"name": "StatefulPartitionedCall/pip_line_explode_model/time_series_transformer/transformer_decoder_layer/sequential/dense_3/Tensordot/GatherV2_1/axis", "op": "Const", "attr": {"value": {"tensor": {"dtype": "DT_INT32", "tensorShape": {}}}, "dtype": {"type": "DT_INT32"}}}, {"name": "StatefulPartitionedCall/pip_line_explode_model/time_series_transformer/transformer_decoder_layer/sequential/dense_3/Tensordot/Const_1", "op": "Const", "attr": {"value": {"tensor": {"dtype": "DT_INT32", "tensorShape": {"dim": [{"size": "1"}]}}}, "dtype": {"type": "DT_INT32"}}}, {"name": "StatefulPartitionedCall/pip_line_explode_model/time_series_transformer/transformer_decoder_layer/sequential/dense_3/Tensordot/ReadVariableOp", "op": "Const", "attr": {"value": {"tensor": {"dtype": "DT_FLOAT", "tensorShape": {"dim": [{"size": "512"}, {"size": "256"}]}}}, "dtype": {"type": "DT_FLOAT"}}}, {"name": "StatefulPartitionedCall/pip_line_explode_model/time_series_transformer/transformer_decoder_layer/sequential/dense_2/Tensordot/Const", "op": "Const", "attr": {"value": {"tensor": {"dtype": "DT_INT32", "tensorShape": {"dim": [{"size": "1"}]}}}, "dtype": {"type": "DT_INT32"}}}, {"name": "StatefulPartitionedCall/pip_line_explode_model/time_series_transformer/transformer_decoder_layer/sequential/dense_2/Tensordot/axes", "op": "Const", "attr": {"value": {"tensor": {"dtype": "DT_INT32", "tensorShape": {"dim": [{"size": "1"}]}}}, "dtype": {"type": "DT_INT32"}}}, {"name": "StatefulPartitionedCall/pip_line_explode_model/time_series_transformer/transformer_decoder_layer/sequential/dense_2/Tensordot/GatherV2_1/axis", "op": "Const", "attr": {"value": {"tensor": {"dtype": "DT_INT32", "tensorShape": {}}}, "dtype": {"type": "DT_INT32"}}}, {"name": "StatefulPartitionedCall/pip_line_explode_model/time_series_transformer/transformer_decoder_layer/sequential/dense_2/Tensordot/Const_1", "op": "Const", "attr": {"value": {"tensor": {"dtype": "DT_INT32", "tensorShape": {"dim": [{"size": "1"}]}}}, "dtype": {"type": "DT_INT32"}}}, {"name": "StatefulPartitionedCall/pip_line_explode_model/time_series_transformer/transformer_decoder_layer/sequential/dense_2/Tensordot/ReadVariableOp", "op": "Const", "attr": {"value": {"tensor": {"dtype": "DT_FLOAT", "tensorShape": {"dim": [{"size": "256"}, {"size": "512"}]}}}, "dtype": {"type": "DT_FLOAT"}}}, {"name": "StatefulPartitionedCall/pip_line_explode_model/time_series_transformer/transformer_decoder_layer/layer_normalization_1/batchnorm/ReadVariableOp", "op": "Const", "attr": {"value": {"tensor": {"dtype": "DT_FLOAT", "tensorShape": {"dim": [{"size": "256"}]}}}, "dtype": {"type": "DT_FLOAT"}}}, {"name": "StatefulPartitionedCall/pip_line_explode_model/time_series_transformer/transformer_decoder_layer/multi_head_attention_1/attention_output/add/ReadVariableOp", "op": "Const", "attr": {"value": {"tensor": {"dtype": "DT_FLOAT", "tensorShape": {"dim": [{"size": "256"}]}}}, "dtype": {"type": "DT_FLOAT"}}}, {"name": "StatefulPartitionedCall/pip_line_explode_model/time_series_transformer/transformer_decoder_layer/multi_head_attention_1/key/einsum/Einsum/ReadVariableOp", "op": "Const", "attr": {"value": {"tensor": {"dtype": "DT_FLOAT", "tensorShape": {"dim": [{"size": "256"}, {"size": "8"}, {"size": "32"}]}}}, "dtype": {"type": "DT_FLOAT"}}}, {"name": "StatefulPartitionedCall/pip_line_explode_model/time_series_transformer/transformer_decoder_layer/multi_head_attention_1/key/add/ReadVariableOp", "op": "Const", "attr": {"value": {"tensor": {"dtype": "DT_FLOAT", "tensorShape": {"dim": [{"size": "8"}, {"size": "32"}]}}}, "dtype": {"type": "DT_FLOAT"}}}, {"name": "StatefulPartitionedCall/pip_line_explode_model/time_series_transformer/transformer_decoder_layer/layer_normalization/batchnorm/ReadVariableOp", "op": "Const", "attr": {"value": {"tensor": {"dtype": "DT_FLOAT", "tensorShape": {"dim": [{"size": "256"}]}}}, "dtype": {"type": "DT_FLOAT"}}}, {"name": "StatefulPartitionedCall/pip_line_explode_model/time_series_transformer/transformer_decoder_layer/multi_head_attention/attention_output/add/ReadVariableOp", "op": "Const", "attr": {"value": {"tensor": {"dtype": "DT_FLOAT", "tensorShape": {"dim": [{"size": "256"}]}}}, "dtype": {"type": "DT_FLOAT"}}}, {"name": "StatefulPartitionedCall/pip_line_explode_model/time_series_transformer/transformer_decoder_layer/multi_head_attention/key/einsum/Einsum/ReadVariableOp", "op": "Const", "attr": {"value": {"tensor": {"dtype": "DT_FLOAT", "tensorShape": {"dim": [{"size": "256"}, {"size": "8"}, {"size": "32"}]}}}, "dtype": {"type": "DT_FLOAT"}}}, {"name": "StatefulPartitionedCall/pip_line_explode_model/time_series_transformer/transformer_decoder_layer/multi_head_attention/key/add/ReadVariableOp", "op": "Const", "attr": {"value": {"tensor": {"dtype": "DT_FLOAT", "tensorShape": {"dim": [{"size": "8"}, {"size": "32"}]}}}, "dtype": {"type": "DT_FLOAT"}}}, {"name": "StatefulPartitionedCall/pip_line_explode_model/time_series_transformer/transformer_decoder_layer/multi_head_attention/query/einsum/Einsum/ReadVariableOp", "op": "Const", "attr": {"value": {"tensor": {"dtype": "DT_FLOAT", "tensorShape": {"dim": [{"size": "256"}, {"size": "8"}, {"size": "32"}]}}}, "dtype": {"type": "DT_FLOAT"}}}, {"name": "StatefulPartitionedCall/pip_line_explode_model/time_series_transformer/transformer_decoder_layer/multi_head_attention/query/add/ReadVariableOp", "op": "Const", "attr": {"value": {"tensor": {"dtype": "DT_FLOAT", "tensorShape": {"dim": [{"size": "8"}, {"size": "32"}]}}}, "dtype": {"type": "DT_FLOAT"}}}, {"name": "StatefulPartitionedCall/pip_line_explode_model/time_series_transformer/transformer_decoder_layer/multi_head_attention/Mul/y", "op": "Const", "attr": {"value": {"tensor": {"dtype": "DT_FLOAT", "tensorShape": {}}}, "dtype": {"type": "DT_FLOAT"}}}, {"name": "StatefulPartitionedCall/pip_line_explode_model/time_series_transformer/transformer_decoder_layer/multi_head_attention/softmax/mul", "op": "Const", "attr": {"value": {"tensor": {"dtype": "DT_FLOAT", "tensorShape": {"dim": [{"size": "1"}, {"size": "1"}, {"size": "31"}, {"size": "31"}]}}}, "dtype": {"type": "DT_FLOAT"}}}, {"name": "StatefulPartitionedCall/pip_line_explode_model/time_series_transformer/transformer_decoder_layer/multi_head_attention/value/einsum/Einsum/ReadVariableOp", "op": "Const", "attr": {"value": {"tensor": {"dtype": "DT_FLOAT", "tensorShape": {"dim": [{"size": "256"}, {"size": "8"}, {"size": "32"}]}}}, "dtype": {"type": "DT_FLOAT"}}}, {"name": "StatefulPartitionedCall/pip_line_explode_model/time_series_transformer/transformer_decoder_layer/multi_head_attention/value/add/ReadVariableOp", "op": "Const", "attr": {"value": {"tensor": {"dtype": "DT_FLOAT", "tensorShape": {"dim": [{"size": "8"}, {"size": "32"}]}}}, "dtype": {"type": "DT_FLOAT"}}}, {"name": "StatefulPartitionedCall/pip_line_explode_model/time_series_transformer/transformer_decoder_layer/multi_head_attention/attention_output/einsum/Einsum/ReadVariableOp", "op": "Const", "attr": {"value": {"tensor": {"dtype": "DT_FLOAT", "tensorShape": {"dim": [{"size": "8"}, {"size": "32"}, {"size": "256"}]}}}, "dtype": {"type": "DT_FLOAT"}}}, {"name": "StatefulPartitionedCall/pip_line_explode_model/time_series_transformer/transformer_decoder_layer/layer_normalization/moments/mean/reduction_indices", "op": "Const", "attr": {"value": {"tensor": {"dtype": "DT_INT32", "tensorShape": {"dim": [{"size": "1"}]}}}, "dtype": {"type": "DT_INT32"}}}, {"name": "StatefulPartitionedCall/pip_line_explode_model/time_series_transformer/transformer_decoder_layer/layer_normalization/moments/variance/reduction_indices", "op": "Const", "attr": {"value": {"tensor": {"dtype": "DT_INT32", "tensorShape": {"dim": [{"size": "1"}]}}}, "dtype": {"type": "DT_INT32"}}}, {"name": "StatefulPartitionedCall/pip_line_explode_model/time_series_transformer/transformer_decoder_layer/layer_normalization/batchnorm/add/y", "op": "Const", "attr": {"value": {"tensor": {"dtype": "DT_FLOAT", "tensorShape": {}}}, "dtype": {"type": "DT_FLOAT"}}}, {"name": "StatefulPartitionedCall/pip_line_explode_model/time_series_transformer/transformer_decoder_layer/layer_normalization/batchnorm/mul/ReadVariableOp", "op": "Const", "attr": {"value": {"tensor": {"dtype": "DT_FLOAT", "tensorShape": {"dim": [{"size": "256"}]}}}, "dtype": {"type": "DT_FLOAT"}}}, {"name": "StatefulPartitionedCall/pip_line_explode_model/time_series_transformer/transformer_decoder_layer/multi_head_attention_1/query/einsum/Einsum/ReadVariableOp", "op": "Const", "attr": {"value": {"tensor": {"dtype": "DT_FLOAT", "tensorShape": {"dim": [{"size": "256"}, {"size": "8"}, {"size": "32"}]}}}, "dtype": {"type": "DT_FLOAT"}}}, {"name": "StatefulPartitionedCall/pip_line_explode_model/time_series_transformer/transformer_decoder_layer/multi_head_attention_1/query/add/ReadVariableOp", "op": "Const", "attr": {"value": {"tensor": {"dtype": "DT_FLOAT", "tensorShape": {"dim": [{"size": "8"}, {"size": "32"}]}}}, "dtype": {"type": "DT_FLOAT"}}}, {"name": "StatefulPartitionedCall/pip_line_explode_model/time_series_transformer/transformer_decoder_layer/multi_head_attention_1/Mul/y", "op": "Const", "attr": {"value": {"tensor": {"dtype": "DT_FLOAT", "tensorShape": {}}}, "dtype": {"type": "DT_FLOAT"}}}, {"name": "StatefulPartitionedCall/pip_line_explode_model/time_series_transformer/dense_1/Tensordot/Const", "op": "Const", "attr": {"value": {"tensor": {"dtype": "DT_INT32", "tensorShape": {"dim": [{"size": "1"}]}}}, "dtype": {"type": "DT_INT32"}}}, {"name": "StatefulPartitionedCall/pip_line_explode_model/time_series_transformer/dense_1/Tensordot/axes", "op": "Const", "attr": {"value": {"tensor": {"dtype": "DT_INT32", "tensorShape": {"dim": [{"size": "1"}]}}}, "dtype": {"type": "DT_INT32"}}}, {"name": "StatefulPartitionedCall/pip_line_explode_model/time_series_transformer/dense_1/Tensordot/GatherV2_1/axis", "op": "Const", "attr": {"value": {"tensor": {"dtype": "DT_INT32", "tensorShape": {}}}, "dtype": {"type": "DT_INT32"}}}, {"name": "StatefulPartitionedCall/pip_line_explode_model/time_series_transformer/dense_1/Tensordot/Const_1", "op": "Const", "attr": {"value": {"tensor": {"dtype": "DT_INT32", "tensorShape": {"dim": [{"size": "1"}]}}}, "dtype": {"type": "DT_INT32"}}}, {"name": "StatefulPartitionedCall/pip_line_explode_model/time_series_transformer/dense_1/Tensordot/ReadVariableOp", "op": "Const", "attr": {"value": {"tensor": {"dtype": "DT_FLOAT", "tensorShape": {"dim": [{"size": "256"}, {"size": "256"}]}}}, "dtype": {"type": "DT_FLOAT"}}}, {"name": "StatefulPartitionedCall/pip_line_explode_model/dense/Tensordot/Const", "op": "Const", "attr": {"value": {"tensor": {"dtype": "DT_INT32", "tensorShape": {"dim": [{"size": "1"}]}}}, "dtype": {"type": "DT_INT32"}}}, {"name": "StatefulPartitionedCall/pip_line_explode_model/dense/Tensordot/axes", "op": "Const", "attr": {"value": {"tensor": {"dtype": "DT_INT32", "tensorShape": {"dim": [{"size": "1"}]}}}, "dtype": {"type": "DT_INT32"}}}, {"name": "StatefulPartitionedCall/pip_line_explode_model/dense/Tensordot/GatherV2_1/axis", "op": "Const", "attr": {"value": {"tensor": {"dtype": "DT_INT32", "tensorShape": {}}}, "dtype": {"type": "DT_INT32"}}}, {"name": "StatefulPartitionedCall/pip_line_explode_model/dense/Tensordot/Const_1", "op": "Const", "attr": {"value": {"tensor": {"dtype": "DT_INT32", "tensorShape": {"dim": [{"size": "1"}]}}}, "dtype": {"type": "DT_INT32"}}}, {"name": "StatefulPartitionedCall/pip_line_explode_model/dense/Tensordot/ReadVariableOp", "op": "Const", "attr": {"value": {"tensor": {"dtype": "DT_FLOAT", "tensorShape": {"dim": [{"size": "9"}, {"size": "256"}]}}}, "dtype": {"type": "DT_FLOAT"}}}, {"name": "StatefulPartitionedCall/pip_line_explode_model/dense/Tensordot/free", "op": "Const", "attr": {"value": {"tensor": {"dtype": "DT_INT32", "tensorShape": {"dim": [{"size": "2"}]}}}, "dtype": {"type": "DT_INT32"}}}, {"name": "StatefulPartitionedCall/pip_line_explode_model/dense/Tensordot/GatherV2/axis", "op": "Const", "attr": {"value": {"tensor": {"dtype": "DT_INT32", "tensorShape": {}}}, "dtype": {"type": "DT_INT32"}}}, {"name": "StatefulPartitionedCall/pip_line_explode_model/dense/Tensordot/Const_2", "op": "Const", "attr": {"value": {"tensor": {"dtype": "DT_INT32", "tensorShape": {"dim": [{"size": "1"}]}}}, "dtype": {"type": "DT_INT32"}}}, {"name": "StatefulPartitionedCall/pip_line_explode_model/dense/Tensordot/concat_1/axis", "op": "Const", "attr": {"value": {"tensor": {"dtype": "DT_INT32", "tensorShape": {}}}, "dtype": {"type": "DT_INT32"}}}, {"name": "StatefulPartitionedCall/pip_line_explode_model/dense/BiasAdd/ReadVariableOp", "op": "Const", "attr": {"value": {"tensor": {"dtype": "DT_FLOAT", "tensorShape": {"dim": [{"size": "256"}]}}}, "dtype": {"type": "DT_FLOAT"}}}, {"name": "StatefulPartitionedCall/pip_line_explode_model/embedding/embedding_lookup", "op": "Const", "attr": {"value": {"tensor": {"dtype": "DT_FLOAT", "tensorShape": {"dim": [{"size": "31"}, {"size": "256"}]}}}, "dtype": {"type": "DT_FLOAT"}}}, {"name": "StatefulPartitionedCall/pip_line_explode_model/time_series_transformer/dense_1/Tensordot/free", "op": "Const", "attr": {"value": {"tensor": {"dtype": "DT_INT32", "tensorShape": {"dim": [{"size": "2"}]}}}, "dtype": {"type": "DT_INT32"}}}, {"name": "StatefulPartitionedCall/pip_line_explode_model/time_series_transformer/dense_1/Tensordot/GatherV2/axis", "op": "Const", "attr": {"value": {"tensor": {"dtype": "DT_INT32", "tensorShape": {}}}, "dtype": {"type": "DT_INT32"}}}, {"name": "StatefulPartitionedCall/pip_line_explode_model/time_series_transformer/dense_1/Tensordot/Const_2", "op": "Const", "attr": {"value": {"tensor": {"dtype": "DT_INT32", "tensorShape": {"dim": [{"size": "1"}]}}}, "dtype": {"type": "DT_INT32"}}}, {"name": "StatefulPartitionedCall/pip_line_explode_model/time_series_transformer/dense_1/Tensordot/concat_1/axis", "op": "Const", "attr": {"value": {"tensor": {"dtype": "DT_INT32", "tensorShape": {}}}, "dtype": {"type": "DT_INT32"}}}, {"name": "StatefulPartitionedCall/pip_line_explode_model/time_series_transformer/dense_1/BiasAdd/ReadVariableOp", "op": "Const", "attr": {"value": {"tensor": {"dtype": "DT_FLOAT", "tensorShape": {"dim": [{"size": "256"}]}}}, "dtype": {"type": "DT_FLOAT"}}}, {"name": "StatefulPartitionedCall/pip_line_explode_model/time_series_transformer/transformer_decoder_layer/multi_head_attention_1/value/einsum/Einsum/ReadVariableOp", "op": "Const", "attr": {"value": {"tensor": {"dtype": "DT_FLOAT", "tensorShape": {"dim": [{"size": "256"}, {"size": "8"}, {"size": "32"}]}}}, "dtype": {"type": "DT_FLOAT"}}}, {"name": "StatefulPartitionedCall/pip_line_explode_model/time_series_transformer/transformer_decoder_layer/multi_head_attention_1/value/add/ReadVariableOp", "op": "Const", "attr": {"value": {"tensor": {"dtype": "DT_FLOAT", "tensorShape": {"dim": [{"size": "8"}, {"size": "32"}]}}}, "dtype": {"type": "DT_FLOAT"}}}, {"name": "StatefulPartitionedCall/pip_line_explode_model/time_series_transformer/transformer_decoder_layer/multi_head_attention_1/attention_output/einsum/Einsum/ReadVariableOp", "op": "Const", "attr": {"value": {"tensor": {"dtype": "DT_FLOAT", "tensorShape": {"dim": [{"size": "8"}, {"size": "32"}, {"size": "256"}]}}}, "dtype": {"type": "DT_FLOAT"}}}, {"name": "StatefulPartitionedCall/pip_line_explode_model/time_series_transformer/transformer_decoder_layer/layer_normalization_1/moments/mean/reduction_indices", "op": "Const", "attr": {"value": {"tensor": {"dtype": "DT_INT32", "tensorShape": {"dim": [{"size": "1"}]}}}, "dtype": {"type": "DT_INT32"}}}, {"name": "StatefulPartitionedCall/pip_line_explode_model/time_series_transformer/transformer_decoder_layer/layer_normalization_1/moments/variance/reduction_indices", "op": "Const", "attr": {"value": {"tensor": {"dtype": "DT_INT32", "tensorShape": {"dim": [{"size": "1"}]}}}, "dtype": {"type": "DT_INT32"}}}, {"name": "StatefulPartitionedCall/pip_line_explode_model/time_series_transformer/transformer_decoder_layer/layer_normalization_1/batchnorm/add/y", "op": "Const", "attr": {"value": {"tensor": {"dtype": "DT_FLOAT", "tensorShape": {}}}, "dtype": {"type": "DT_FLOAT"}}}, {"name": "StatefulPartitionedCall/pip_line_explode_model/time_series_transformer/transformer_decoder_layer/layer_normalization_1/batchnorm/mul/ReadVariableOp", "op": "Const", "attr": {"value": {"tensor": {"dtype": "DT_FLOAT", "tensorShape": {"dim": [{"size": "256"}]}}}, "dtype": {"type": "DT_FLOAT"}}}, {"name": "StatefulPartitionedCall/pip_line_explode_model/time_series_transformer/transformer_decoder_layer/sequential/dense_2/Tensordot/free", "op": "Const", "attr": {"value": {"tensor": {"dtype": "DT_INT32", "tensorShape": {"dim": [{"size": "2"}]}}}, "dtype": {"type": "DT_INT32"}}}, {"name": "StatefulPartitionedCall/pip_line_explode_model/time_series_transformer/transformer_decoder_layer/sequential/dense_2/Tensordot/GatherV2/axis", "op": "Const", "attr": {"value": {"tensor": {"dtype": "DT_INT32", "tensorShape": {}}}, "dtype": {"type": "DT_INT32"}}}, {"name": "StatefulPartitionedCall/pip_line_explode_model/time_series_transformer/transformer_decoder_layer/sequential/dense_2/Tensordot/Const_2", "op": "Const", "attr": {"value": {"tensor": {"dtype": "DT_INT32", "tensorShape": {"dim": [{"size": "1"}]}}}, "dtype": {"type": "DT_INT32"}}}, {"name": "StatefulPartitionedCall/pip_line_explode_model/time_series_transformer/transformer_decoder_layer/sequential/dense_2/Tensordot/concat_1/axis", "op": "Const", "attr": {"value": {"tensor": {"dtype": "DT_INT32", "tensorShape": {}}}, "dtype": {"type": "DT_INT32"}}}, {"name": "StatefulPartitionedCall/pip_line_explode_model/time_series_transformer/transformer_decoder_layer/sequential/dense_2/BiasAdd/ReadVariableOp", "op": "Const", "attr": {"value": {"tensor": {"dtype": "DT_FLOAT", "tensorShape": {"dim": [{"size": "512"}]}}}, "dtype": {"type": "DT_FLOAT"}}}, {"name": "StatefulPartitionedCall/pip_line_explode_model/time_series_transformer/transformer_decoder_layer/sequential/dense_3/Tensordot/free", "op": "Const", "attr": {"value": {"tensor": {"dtype": "DT_INT32", "tensorShape": {"dim": [{"size": "2"}]}}}, "dtype": {"type": "DT_INT32"}}}, {"name": "StatefulPartitionedCall/pip_line_explode_model/time_series_transformer/transformer_decoder_layer/sequential/dense_3/Tensordot/GatherV2/axis", "op": "Const", "attr": {"value": {"tensor": {"dtype": "DT_INT32", "tensorShape": {}}}, "dtype": {"type": "DT_INT32"}}}, {"name": "StatefulPartitionedCall/pip_line_explode_model/time_series_transformer/transformer_decoder_layer/sequential/dense_3/Tensordot/Const_2", "op": "Const", "attr": {"value": {"tensor": {"dtype": "DT_INT32", "tensorShape": {"dim": [{"size": "1"}]}}}, "dtype": {"type": "DT_INT32"}}}, {"name": "StatefulPartitionedCall/pip_line_explode_model/time_series_transformer/transformer_decoder_layer/sequential/dense_3/Tensordot/concat_1/axis", "op": "Const", "attr": {"value": {"tensor": {"dtype": "DT_INT32", "tensorShape": {}}}, "dtype": {"type": "DT_INT32"}}}, {"name": "StatefulPartitionedCall/pip_line_explode_model/time_series_transformer/transformer_decoder_layer/sequential/dense_3/BiasAdd/ReadVariableOp", "op": "Const", "attr": {"value": {"tensor": {"dtype": "DT_FLOAT", "tensorShape": {"dim": [{"size": "256"}]}}}, "dtype": {"type": "DT_FLOAT"}}}, {"name": "StatefulPartitionedCall/pip_line_explode_model/time_series_transformer/transformer_decoder_layer/layer_normalization_2/moments/mean/reduction_indices", "op": "Const", "attr": {"value": {"tensor": {"dtype": "DT_INT32", "tensorShape": {"dim": [{"size": "1"}]}}}, "dtype": {"type": "DT_INT32"}}}, {"name": "StatefulPartitionedCall/pip_line_explode_model/time_series_transformer/transformer_decoder_layer/layer_normalization_2/moments/variance/reduction_indices", "op": "Const", "attr": {"value": {"tensor": {"dtype": "DT_INT32", "tensorShape": {"dim": [{"size": "1"}]}}}, "dtype": {"type": "DT_INT32"}}}, {"name": "StatefulPartitionedCall/pip_line_explode_model/time_series_transformer/transformer_decoder_layer/layer_normalization_2/batchnorm/add/y", "op": "Const", "attr": {"value": {"tensor": {"dtype": "DT_FLOAT", "tensorShape": {}}}, "dtype": {"type": "DT_FLOAT"}}}, {"name": "StatefulPartitionedCall/pip_line_explode_model/time_series_transformer/transformer_decoder_layer/layer_normalization_2/batchnorm/mul/ReadVariableOp", "op": "Const", "attr": {"value": {"tensor": {"dtype": "DT_FLOAT", "tensorShape": {"dim": [{"size": "256"}]}}}, "dtype": {"type": "DT_FLOAT"}}}, {"name": "StatefulPartitionedCall/pip_line_explode_model/time_series_transformer/transformer_decoder_layer_1/multi_head_attention_3/value/einsum/Einsum/ReadVariableOp", "op": "Const", "attr": {"value": {"tensor": {"dtype": "DT_FLOAT", "tensorShape": {"dim": [{"size": "256"}, {"size": "8"}, {"size": "32"}]}}}, "dtype": {"type": "DT_FLOAT"}}}, {"name": "StatefulPartitionedCall/pip_line_explode_model/time_series_transformer/transformer_decoder_layer_1/multi_head_attention_3/value/add/ReadVariableOp", "op": "Const", "attr": {"value": {"tensor": {"dtype": "DT_FLOAT", "tensorShape": {"dim": [{"size": "8"}, {"size": "32"}]}}}, "dtype": {"type": "DT_FLOAT"}}}, {"name": "StatefulPartitionedCall/pip_line_explode_model/time_series_transformer/transformer_decoder_layer_1/multi_head_attention_3/attention_output/einsum/Einsum/ReadVariableOp", "op": "Const", "attr": {"value": {"tensor": {"dtype": "DT_FLOAT", "tensorShape": {"dim": [{"size": "8"}, {"size": "32"}, {"size": "256"}]}}}, "dtype": {"type": "DT_FLOAT"}}}, {"name": "StatefulPartitionedCall/pip_line_explode_model/time_series_transformer/transformer_decoder_layer_1/layer_normalization_4/moments/mean/reduction_indices", "op": "Const", "attr": {"value": {"tensor": {"dtype": "DT_INT32", "tensorShape": {"dim": [{"size": "1"}]}}}, "dtype": {"type": "DT_INT32"}}}, {"name": "StatefulPartitionedCall/pip_line_explode_model/time_series_transformer/transformer_decoder_layer_1/layer_normalization_4/moments/variance/reduction_indices", "op": "Const", "attr": {"value": {"tensor": {"dtype": "DT_INT32", "tensorShape": {"dim": [{"size": "1"}]}}}, "dtype": {"type": "DT_INT32"}}}, {"name": "StatefulPartitionedCall/pip_line_explode_model/time_series_transformer/transformer_decoder_layer_1/layer_normalization_4/batchnorm/add/y", "op": "Const", "attr": {"value": {"tensor": {"dtype": "DT_FLOAT", "tensorShape": {}}}, "dtype": {"type": "DT_FLOAT"}}}, {"name": "StatefulPartitionedCall/pip_line_explode_model/time_series_transformer/transformer_decoder_layer_1/layer_normalization_4/batchnorm/mul/ReadVariableOp", "op": "Const", "attr": {"value": {"tensor": {"dtype": "DT_FLOAT", "tensorShape": {"dim": [{"size": "256"}]}}}, "dtype": {"type": "DT_FLOAT"}}}, {"name": "StatefulPartitionedCall/pip_line_explode_model/time_series_transformer/transformer_decoder_layer_1/sequential_1/dense_4/Tensordot/free", "op": "Const", "attr": {"value": {"tensor": {"dtype": "DT_INT32", "tensorShape": {"dim": [{"size": "2"}]}}}, "dtype": {"type": "DT_INT32"}}}, {"name": "StatefulPartitionedCall/pip_line_explode_model/time_series_transformer/transformer_decoder_layer_1/sequential_1/dense_4/Tensordot/GatherV2/axis", "op": "Const", "attr": {"value": {"tensor": {"dtype": "DT_INT32", "tensorShape": {}}}, "dtype": {"type": "DT_INT32"}}}, {"name": "StatefulPartitionedCall/pip_line_explode_model/time_series_transformer/transformer_decoder_layer_1/sequential_1/dense_4/Tensordot/Const_2", "op": "Const", "attr": {"value": {"tensor": {"dtype": "DT_INT32", "tensorShape": {"dim": [{"size": "1"}]}}}, "dtype": {"type": "DT_INT32"}}}, {"name": "StatefulPartitionedCall/pip_line_explode_model/time_series_transformer/transformer_decoder_layer_1/sequential_1/dense_4/Tensordot/concat_1/axis", "op": "Const", "attr": {"value": {"tensor": {"dtype": "DT_INT32", "tensorShape": {}}}, "dtype": {"type": "DT_INT32"}}}, {"name": "StatefulPartitionedCall/pip_line_explode_model/time_series_transformer/transformer_decoder_layer_1/sequential_1/dense_4/BiasAdd/ReadVariableOp", "op": "Const", "attr": {"value": {"tensor": {"dtype": "DT_FLOAT", "tensorShape": {"dim": [{"size": "512"}]}}}, "dtype": {"type": "DT_FLOAT"}}}, {"name": "StatefulPartitionedCall/pip_line_explode_model/time_series_transformer/transformer_decoder_layer_1/sequential_1/dense_5/Tensordot/free", "op": "Const", "attr": {"value": {"tensor": {"dtype": "DT_INT32", "tensorShape": {"dim": [{"size": "2"}]}}}, "dtype": {"type": "DT_INT32"}}}, {"name": "StatefulPartitionedCall/pip_line_explode_model/time_series_transformer/transformer_decoder_layer_1/sequential_1/dense_5/Tensordot/GatherV2/axis", "op": "Const", "attr": {"value": {"tensor": {"dtype": "DT_INT32", "tensorShape": {}}}, "dtype": {"type": "DT_INT32"}}}, {"name": "StatefulPartitionedCall/pip_line_explode_model/time_series_transformer/transformer_decoder_layer_1/sequential_1/dense_5/Tensordot/Const_2", "op": "Const", "attr": {"value": {"tensor": {"dtype": "DT_INT32", "tensorShape": {"dim": [{"size": "1"}]}}}, "dtype": {"type": "DT_INT32"}}}, {"name": "StatefulPartitionedCall/pip_line_explode_model/time_series_transformer/transformer_decoder_layer_1/sequential_1/dense_5/Tensordot/concat_1/axis", "op": "Const", "attr": {"value": {"tensor": {"dtype": "DT_INT32", "tensorShape": {}}}, "dtype": {"type": "DT_INT32"}}}, {"name": "StatefulPartitionedCall/pip_line_explode_model/time_series_transformer/transformer_decoder_layer_1/sequential_1/dense_5/BiasAdd/ReadVariableOp", "op": "Const", "attr": {"value": {"tensor": {"dtype": "DT_FLOAT", "tensorShape": {"dim": [{"size": "256"}]}}}, "dtype": {"type": "DT_FLOAT"}}}, {"name": "StatefulPartitionedCall/pip_line_explode_model/time_series_transformer/transformer_decoder_layer_1/layer_normalization_5/moments/mean/reduction_indices", "op": "Const", "attr": {"value": {"tensor": {"dtype": "DT_INT32", "tensorShape": {"dim": [{"size": "1"}]}}}, "dtype": {"type": "DT_INT32"}}}, {"name": "StatefulPartitionedCall/pip_line_explode_model/time_series_transformer/transformer_decoder_layer_1/layer_normalization_5/moments/variance/reduction_indices", "op": "Const", "attr": {"value": {"tensor": {"dtype": "DT_INT32", "tensorShape": {"dim": [{"size": "1"}]}}}, "dtype": {"type": "DT_INT32"}}}, {"name": "StatefulPartitionedCall/pip_line_explode_model/time_series_transformer/transformer_decoder_layer_1/layer_normalization_5/batchnorm/add/y", "op": "Const", "attr": {"value": {"tensor": {"dtype": "DT_FLOAT", "tensorShape": {}}}, "dtype": {"type": "DT_FLOAT"}}}, {"name": "StatefulPartitionedCall/pip_line_explode_model/time_series_transformer/transformer_decoder_layer_1/layer_normalization_5/batchnorm/mul/ReadVariableOp", "op": "Const", "attr": {"value": {"tensor": {"dtype": "DT_FLOAT", "tensorShape": {"dim": [{"size": "256"}]}}}, "dtype": {"type": "DT_FLOAT"}}}, {"name": "StatefulPartitionedCall/pip_line_explode_model/time_series_transformer/transformer_decoder_layer_2/multi_head_attention_5/value/einsum/Einsum/ReadVariableOp", "op": "Const", "attr": {"value": {"tensor": {"dtype": "DT_FLOAT", "tensorShape": {"dim": [{"size": "256"}, {"size": "8"}, {"size": "32"}]}}}, "dtype": {"type": "DT_FLOAT"}}}, {"name": "StatefulPartitionedCall/pip_line_explode_model/time_series_transformer/transformer_decoder_layer_2/multi_head_attention_5/value/add/ReadVariableOp", "op": "Const", "attr": {"value": {"tensor": {"dtype": "DT_FLOAT", "tensorShape": {"dim": [{"size": "8"}, {"size": "32"}]}}}, "dtype": {"type": "DT_FLOAT"}}}, {"name": "StatefulPartitionedCall/pip_line_explode_model/time_series_transformer/transformer_decoder_layer_2/multi_head_attention_5/attention_output/einsum/Einsum/ReadVariableOp", "op": "Const", "attr": {"value": {"tensor": {"dtype": "DT_FLOAT", "tensorShape": {"dim": [{"size": "8"}, {"size": "32"}, {"size": "256"}]}}}, "dtype": {"type": "DT_FLOAT"}}}, {"name": "StatefulPartitionedCall/pip_line_explode_model/time_series_transformer/transformer_decoder_layer_2/layer_normalization_7/moments/mean/reduction_indices", "op": "Const", "attr": {"value": {"tensor": {"dtype": "DT_INT32", "tensorShape": {"dim": [{"size": "1"}]}}}, "dtype": {"type": "DT_INT32"}}}, {"name": "StatefulPartitionedCall/pip_line_explode_model/time_series_transformer/transformer_decoder_layer_2/layer_normalization_7/moments/variance/reduction_indices", "op": "Const", "attr": {"value": {"tensor": {"dtype": "DT_INT32", "tensorShape": {"dim": [{"size": "1"}]}}}, "dtype": {"type": "DT_INT32"}}}, {"name": "StatefulPartitionedCall/pip_line_explode_model/time_series_transformer/transformer_decoder_layer_2/layer_normalization_7/batchnorm/add/y", "op": "Const", "attr": {"value": {"tensor": {"dtype": "DT_FLOAT", "tensorShape": {}}}, "dtype": {"type": "DT_FLOAT"}}}, {"name": "StatefulPartitionedCall/pip_line_explode_model/time_series_transformer/transformer_decoder_layer_2/layer_normalization_7/batchnorm/mul/ReadVariableOp", "op": "Const", "attr": {"value": {"tensor": {"dtype": "DT_FLOAT", "tensorShape": {"dim": [{"size": "256"}]}}}, "dtype": {"type": "DT_FLOAT"}}}, {"name": "StatefulPartitionedCall/pip_line_explode_model/time_series_transformer/transformer_decoder_layer_2/sequential_2/dense_6/Tensordot/free", "op": "Const", "attr": {"value": {"tensor": {"dtype": "DT_INT32", "tensorShape": {"dim": [{"size": "2"}]}}}, "dtype": {"type": "DT_INT32"}}}, {"name": "StatefulPartitionedCall/pip_line_explode_model/time_series_transformer/transformer_decoder_layer_2/sequential_2/dense_6/Tensordot/GatherV2/axis", "op": "Const", "attr": {"value": {"tensor": {"dtype": "DT_INT32", "tensorShape": {}}}, "dtype": {"type": "DT_INT32"}}}, {"name": "StatefulPartitionedCall/pip_line_explode_model/time_series_transformer/transformer_decoder_layer_2/sequential_2/dense_6/Tensordot/Const_2", "op": "Const", "attr": {"value": {"tensor": {"dtype": "DT_INT32", "tensorShape": {"dim": [{"size": "1"}]}}}, "dtype": {"type": "DT_INT32"}}}, {"name": "StatefulPartitionedCall/pip_line_explode_model/time_series_transformer/transformer_decoder_layer_2/sequential_2/dense_6/Tensordot/concat_1/axis", "op": "Const", "attr": {"value": {"tensor": {"dtype": "DT_INT32", "tensorShape": {}}}, "dtype": {"type": "DT_INT32"}}}, {"name": "StatefulPartitionedCall/pip_line_explode_model/time_series_transformer/transformer_decoder_layer_2/sequential_2/dense_6/BiasAdd/ReadVariableOp", "op": "Const", "attr": {"value": {"tensor": {"dtype": "DT_FLOAT", "tensorShape": {"dim": [{"size": "512"}]}}}, "dtype": {"type": "DT_FLOAT"}}}, {"name": "StatefulPartitionedCall/pip_line_explode_model/time_series_transformer/transformer_decoder_layer_2/sequential_2/dense_7/Tensordot/free", "op": "Const", "attr": {"value": {"tensor": {"dtype": "DT_INT32", "tensorShape": {"dim": [{"size": "2"}]}}}, "dtype": {"type": "DT_INT32"}}}, {"name": "StatefulPartitionedCall/pip_line_explode_model/time_series_transformer/transformer_decoder_layer_2/sequential_2/dense_7/Tensordot/GatherV2/axis", "op": "Const", "attr": {"value": {"tensor": {"dtype": "DT_INT32", "tensorShape": {}}}, "dtype": {"type": "DT_INT32"}}}, {"name": "StatefulPartitionedCall/pip_line_explode_model/time_series_transformer/transformer_decoder_layer_2/sequential_2/dense_7/Tensordot/Const_2", "op": "Const", "attr": {"value": {"tensor": {"dtype": "DT_INT32", "tensorShape": {"dim": [{"size": "1"}]}}}, "dtype": {"type": "DT_INT32"}}}, {"name": "StatefulPartitionedCall/pip_line_explode_model/time_series_transformer/transformer_decoder_layer_2/sequential_2/dense_7/Tensordot/concat_1/axis", "op": "Const", "attr": {"value": {"tensor": {"dtype": "DT_INT32", "tensorShape": {}}}, "dtype": {"type": "DT_INT32"}}}, {"name": "StatefulPartitionedCall/pip_line_explode_model/time_series_transformer/transformer_decoder_layer_2/sequential_2/dense_7/BiasAdd/ReadVariableOp", "op": "Const", "attr": {"value": {"tensor": {"dtype": "DT_FLOAT", "tensorShape": {"dim": [{"size": "256"}]}}}, "dtype": {"type": "DT_FLOAT"}}}, {"name": "StatefulPartitionedCall/pip_line_explode_model/time_series_transformer/transformer_decoder_layer_2/layer_normalization_8/moments/mean/reduction_indices", "op": "Const", "attr": {"value": {"tensor": {"dtype": "DT_INT32", "tensorShape": {"dim": [{"size": "1"}]}}}, "dtype": {"type": "DT_INT32"}}}, {"name": "StatefulPartitionedCall/pip_line_explode_model/time_series_transformer/transformer_decoder_layer_2/layer_normalization_8/moments/variance/reduction_indices", "op": "Const", "attr": {"value": {"tensor": {"dtype": "DT_INT32", "tensorShape": {"dim": [{"size": "1"}]}}}, "dtype": {"type": "DT_INT32"}}}, {"name": "StatefulPartitionedCall/pip_line_explode_model/time_series_transformer/transformer_decoder_layer_2/layer_normalization_8/batchnorm/add/y", "op": "Const", "attr": {"value": {"tensor": {"dtype": "DT_FLOAT", "tensorShape": {}}}, "dtype": {"type": "DT_FLOAT"}}}, {"name": "StatefulPartitionedCall/pip_line_explode_model/time_series_transformer/transformer_decoder_layer_2/layer_normalization_8/batchnorm/mul/ReadVariableOp", "op": "Const", "attr": {"value": {"tensor": {"dtype": "DT_FLOAT", "tensorShape": {"dim": [{"size": "256"}]}}}, "dtype": {"type": "DT_FLOAT"}}}, {"name": "StatefulPartitionedCall/pip_line_explode_model/time_series_transformer/transformer_decoder_layer_3/multi_head_attention_7/value/einsum/Einsum/ReadVariableOp", "op": "Const", "attr": {"value": {"tensor": {"dtype": "DT_FLOAT", "tensorShape": {"dim": [{"size": "256"}, {"size": "8"}, {"size": "32"}]}}}, "dtype": {"type": "DT_FLOAT"}}}, {"name": "StatefulPartitionedCall/pip_line_explode_model/time_series_transformer/transformer_decoder_layer_3/multi_head_attention_7/value/add/ReadVariableOp", "op": "Const", "attr": {"value": {"tensor": {"dtype": "DT_FLOAT", "tensorShape": {"dim": [{"size": "8"}, {"size": "32"}]}}}, "dtype": {"type": "DT_FLOAT"}}}, {"name": "StatefulPartitionedCall/pip_line_explode_model/time_series_transformer/transformer_decoder_layer_3/multi_head_attention_7/attention_output/einsum/Einsum/ReadVariableOp", "op": "Const", "attr": {"value": {"tensor": {"dtype": "DT_FLOAT", "tensorShape": {"dim": [{"size": "8"}, {"size": "32"}, {"size": "256"}]}}}, "dtype": {"type": "DT_FLOAT"}}}, {"name": "StatefulPartitionedCall/pip_line_explode_model/time_series_transformer/transformer_decoder_layer_3/layer_normalization_10/moments/mean/reduction_indices", "op": "Const", "attr": {"value": {"tensor": {"dtype": "DT_INT32", "tensorShape": {"dim": [{"size": "1"}]}}}, "dtype": {"type": "DT_INT32"}}}, {"name": "StatefulPartitionedCall/pip_line_explode_model/time_series_transformer/transformer_decoder_layer_3/layer_normalization_10/moments/variance/reduction_indices", "op": "Const", "attr": {"value": {"tensor": {"dtype": "DT_INT32", "tensorShape": {"dim": [{"size": "1"}]}}}, "dtype": {"type": "DT_INT32"}}}, {"name": "StatefulPartitionedCall/pip_line_explode_model/time_series_transformer/transformer_decoder_layer_3/layer_normalization_10/batchnorm/add/y", "op": "Const", "attr": {"value": {"tensor": {"dtype": "DT_FLOAT", "tensorShape": {}}}, "dtype": {"type": "DT_FLOAT"}}}, {"name": "StatefulPartitionedCall/pip_line_explode_model/time_series_transformer/transformer_decoder_layer_3/layer_normalization_10/batchnorm/mul/ReadVariableOp", "op": "Const", "attr": {"value": {"tensor": {"dtype": "DT_FLOAT", "tensorShape": {"dim": [{"size": "256"}]}}}, "dtype": {"type": "DT_FLOAT"}}}, {"name": "StatefulPartitionedCall/pip_line_explode_model/time_series_transformer/transformer_decoder_layer_3/sequential_3/dense_8/Tensordot/free", "op": "Const", "attr": {"value": {"tensor": {"dtype": "DT_INT32", "tensorShape": {"dim": [{"size": "2"}]}}}, "dtype": {"type": "DT_INT32"}}}, {"name": "StatefulPartitionedCall/pip_line_explode_model/time_series_transformer/transformer_decoder_layer_3/sequential_3/dense_8/Tensordot/GatherV2/axis", "op": "Const", "attr": {"value": {"tensor": {"dtype": "DT_INT32", "tensorShape": {}}}, "dtype": {"type": "DT_INT32"}}}, {"name": "StatefulPartitionedCall/pip_line_explode_model/time_series_transformer/transformer_decoder_layer_3/sequential_3/dense_8/Tensordot/Const_2", "op": "Const", "attr": {"value": {"tensor": {"dtype": "DT_INT32", "tensorShape": {"dim": [{"size": "1"}]}}}, "dtype": {"type": "DT_INT32"}}}, {"name": "StatefulPartitionedCall/pip_line_explode_model/time_series_transformer/transformer_decoder_layer_3/sequential_3/dense_8/Tensordot/concat_1/axis", "op": "Const", "attr": {"value": {"tensor": {"dtype": "DT_INT32", "tensorShape": {}}}, "dtype": {"type": "DT_INT32"}}}, {"name": "StatefulPartitionedCall/pip_line_explode_model/time_series_transformer/transformer_decoder_layer_3/sequential_3/dense_8/BiasAdd/ReadVariableOp", "op": "Const", "attr": {"value": {"tensor": {"dtype": "DT_FLOAT", "tensorShape": {"dim": [{"size": "512"}]}}}, "dtype": {"type": "DT_FLOAT"}}}, {"name": "StatefulPartitionedCall/pip_line_explode_model/time_series_transformer/transformer_decoder_layer_3/sequential_3/dense_9/Tensordot/free", "op": "Const", "attr": {"value": {"tensor": {"dtype": "DT_INT32", "tensorShape": {"dim": [{"size": "2"}]}}}, "dtype": {"type": "DT_INT32"}}}, {"name": "StatefulPartitionedCall/pip_line_explode_model/time_series_transformer/transformer_decoder_layer_3/sequential_3/dense_9/Tensordot/GatherV2/axis", "op": "Const", "attr": {"value": {"tensor": {"dtype": "DT_INT32", "tensorShape": {}}}, "dtype": {"type": "DT_INT32"}}}, {"name": "StatefulPartitionedCall/pip_line_explode_model/time_series_transformer/transformer_decoder_layer_3/sequential_3/dense_9/Tensordot/Const_2", "op": "Const", "attr": {"value": {"tensor": {"dtype": "DT_INT32", "tensorShape": {"dim": [{"size": "1"}]}}}, "dtype": {"type": "DT_INT32"}}}, {"name": "StatefulPartitionedCall/pip_line_explode_model/time_series_transformer/transformer_decoder_layer_3/sequential_3/dense_9/Tensordot/concat_1/axis", "op": "Const", "attr": {"value": {"tensor": {"dtype": "DT_INT32", "tensorShape": {}}}, "dtype": {"type": "DT_INT32"}}}, {"name": "StatefulPartitionedCall/pip_line_explode_model/time_series_transformer/transformer_decoder_layer_3/sequential_3/dense_9/BiasAdd/ReadVariableOp", "op": "Const", "attr": {"value": {"tensor": {"dtype": "DT_FLOAT", "tensorShape": {"dim": [{"size": "256"}]}}}, "dtype": {"type": "DT_FLOAT"}}}, {"name": "StatefulPartitionedCall/pip_line_explode_model/time_series_transformer/transformer_decoder_layer_3/layer_normalization_11/moments/mean/reduction_indices", "op": "Const", "attr": {"value": {"tensor": {"dtype": "DT_INT32", "tensorShape": {"dim": [{"size": "1"}]}}}, "dtype": {"type": "DT_INT32"}}}, {"name": "StatefulPartitionedCall/pip_line_explode_model/time_series_transformer/transformer_decoder_layer_3/layer_normalization_11/moments/variance/reduction_indices", "op": "Const", "attr": {"value": {"tensor": {"dtype": "DT_INT32", "tensorShape": {"dim": [{"size": "1"}]}}}, "dtype": {"type": "DT_INT32"}}}, {"name": "StatefulPartitionedCall/pip_line_explode_model/time_series_transformer/transformer_decoder_layer_3/layer_normalization_11/batchnorm/add/y", "op": "Const", "attr": {"value": {"tensor": {"dtype": "DT_FLOAT", "tensorShape": {}}}, "dtype": {"type": "DT_FLOAT"}}}, {"name": "StatefulPartitionedCall/pip_line_explode_model/time_series_transformer/transformer_decoder_layer_3/layer_normalization_11/batchnorm/mul/ReadVariableOp", "op": "Const", "attr": {"value": {"tensor": {"dtype": "DT_FLOAT", "tensorShape": {"dim": [{"size": "256"}]}}}, "dtype": {"type": "DT_FLOAT"}}}, {"name": "StatefulPartitionedCall/pip_line_explode_model/time_series_transformer/dense_10/Tensordot/free", "op": "Const", "attr": {"value": {"tensor": {"dtype": "DT_INT32", "tensorShape": {"dim": [{"size": "2"}]}}}, "dtype": {"type": "DT_INT32"}}}, {"name": "StatefulPartitionedCall/pip_line_explode_model/time_series_transformer/dense_10/Tensordot/GatherV2/axis", "op": "Const", "attr": {"value": {"tensor": {"dtype": "DT_INT32", "tensorShape": {}}}, "dtype": {"type": "DT_INT32"}}}, {"name": "StatefulPartitionedCall/pip_line_explode_model/time_series_transformer/dense_10/Tensordot/Const_2", "op": "Const", "attr": {"value": {"tensor": {"dtype": "DT_INT32", "tensorShape": {"dim": [{"size": "1"}]}}}, "dtype": {"type": "DT_INT32"}}}, {"name": "StatefulPartitionedCall/pip_line_explode_model/time_series_transformer/dense_10/Tensordot/concat_1/axis", "op": "Const", "attr": {"value": {"tensor": {"dtype": "DT_INT32", "tensorShape": {}}}, "dtype": {"type": "DT_INT32"}}}, {"name": "StatefulPartitionedCall/pip_line_explode_model/time_series_transformer/dense_10/BiasAdd/ReadVariableOp", "op": "Const", "attr": {"value": {"tensor": {"dtype": "DT_FLOAT", "tensorShape": {"dim": [{"size": "256"}]}}}, "dtype": {"type": "DT_FLOAT"}}}, {"name": "StatefulPartitionedCall/pip_line_explode_model/dense_11/Tensordot/free", "op": "Const", "attr": {"value": {"tensor": {"dtype": "DT_INT32", "tensorShape": {"dim": [{"size": "2"}]}}}, "dtype": {"type": "DT_INT32"}}}, {"name": "StatefulPartitionedCall/pip_line_explode_model/dense_11/Tensordot/GatherV2/axis", "op": "Const", "attr": {"value": {"tensor": {"dtype": "DT_INT32", "tensorShape": {}}}, "dtype": {"type": "DT_INT32"}}}, {"name": "StatefulPartitionedCall/pip_line_explode_model/dense_11/Tensordot/Const_2", "op": "Const", "attr": {"value": {"tensor": {"dtype": "DT_INT32", "tensorShape": {"dim": [{"size": "1"}]}}}, "dtype": {"type": "DT_INT32"}}}, {"name": "StatefulPartitionedCall/pip_line_explode_model/dense_11/Tensordot/concat_1/axis", "op": "Const", "attr": {"value": {"tensor": {"dtype": "DT_INT32", "tensorShape": {}}}, "dtype": {"type": "DT_INT32"}}}, {"name": "StatefulPartitionedCall/pip_line_explode_model/dense_11/BiasAdd/ReadVariableOp", "op": "Const", "attr": {"value": {"tensor": {"dtype": "DT_FLOAT", "tensorShape": {"dim": [{"size": "9"}]}}}, "dtype": {"type": "DT_FLOAT"}}}, {"name": "StatefulPartitionedCall/pip_line_explode_model/batch_normalization/batchnorm/mul", "op": "Const", "attr": {"value": {"tensor": {"dtype": "DT_FLOAT", "tensorShape": {"dim": [{"size": "9"}]}}}, "dtype": {"type": "DT_FLOAT"}}}, {"name": "StatefulPartitionedCall/pip_line_explode_model/batch_normalization/batchnorm/sub", "op": "Const", "attr": {"value": {"tensor": {"dtype": "DT_FLOAT", "tensorShape": {"dim": [{"size": "9"}]}}}, "dtype": {"type": "DT_FLOAT"}}}, {"name": "input_1", "op": "Placeholder", "attr": {"shape": {"shape": {"dim": [{"size": "-1"}, {"size": "31"}, {"size": "9"}]}}, "dtype": {"type": "DT_FLOAT"}}}, {"name": "StatefulPartitionedCall/pip_line_explode_model/batch_normalization/batchnorm/mul_1", "op": "Mul", "input": ["input_1", "StatefulPartitionedCall/pip_line_explode_model/batch_normalization/batchnorm/mul"], "attr": {"T": {"type": "DT_FLOAT"}}}, {"name": "StatefulPartitionedCall/pip_line_explode_model/batch_normalization/batchnorm/add_1", "op": "AddV2", "input": ["StatefulPartitionedCall/pip_line_explode_model/batch_normalization/batchnorm/mul_1", "StatefulPartitionedCall/pip_line_explode_model/batch_normalization/batchnorm/sub"], "attr": {"T": {"type": "DT_FLOAT"}}}, {"name": "StatefulPartitionedCall/pip_line_explode_model/dense/Tensordot/Shape", "op": "Shape", "input": ["StatefulPartitionedCall/pip_line_explode_model/batch_normalization/batchnorm/add_1"], "attr": {"T": {"type": "DT_FLOAT"}, "out_type": {"type": "DT_INT32"}}, "experimentalType": {"typeId": "TFT_PRODUCT", "args": [{"typeId": "TFT_SHAPE_TENSOR", "args": [{"typeId": "TFT_INT32"}]}]}}, {"name": "Identity_1", "op": "Identity", "input": ["StatefulPartitionedCall/pip_line_explode_model/batch_normalization/batchnorm/add_1"], "attr": {"T": {"type": "DT_FLOAT"}}}, {"name": "StatefulPartitionedCall/pip_line_explode_model/dense/Tensordot/GatherV2_1", "op": "GatherV2", "input": ["StatefulPartitionedCall/pip_line_explode_model/dense/Tensordot/Shape", "StatefulPartitionedCall/pip_line_explode_model/dense/Tensordot/axes", "StatefulPartitionedCall/pip_line_explode_model/dense/Tensordot/GatherV2_1/axis"], "attr": {"Taxis": {"type": "DT_INT32"}, "Tparams": {"type": "DT_INT32"}, "Tindices": {"type": "DT_INT32"}, "batch_dims": {"i": "0"}}}, {"name": "StatefulPartitionedCall/pip_line_explode_model/dense/Tensordot/GatherV2", "op": "GatherV2", "input": ["StatefulPartitionedCall/pip_line_explode_model/dense/Tensordot/Shape", "StatefulPartitionedCall/pip_line_explode_model/dense/Tensordot/free", "StatefulPartitionedCall/pip_line_explode_model/dense/Tensordot/GatherV2/axis"], "attr": {"Taxis": {"type": "DT_INT32"}, "Tparams": {"type": "DT_INT32"}, "Tindices": {"type": "DT_INT32"}, "batch_dims": {"i": "0"}}}, {"name": "StatefulPartitionedCall/pip_line_explode_model/dense/Tensordot/Prod_1", "op": "Prod", "input": ["StatefulPartitionedCall/pip_line_explode_model/dense/Tensordot/GatherV2_1", "StatefulPartitionedCall/pip_line_explode_model/dense/Tensordot/Const_1"], "attr": {"T": {"type": "DT_INT32"}, "Tidx": {"type": "DT_INT32"}, "keep_dims": {"b": false}}}, {"name": "StatefulPartitionedCall/pip_line_explode_model/dense/Tensordot/Prod", "op": "Prod", "input": ["StatefulPartitionedCall/pip_line_explode_model/dense/Tensordot/GatherV2", "StatefulPartitionedCall/pip_line_explode_model/dense/Tensordot/Const"], "attr": {"T": {"type": "DT_INT32"}, "Tidx": {"type": "DT_INT32"}, "keep_dims": {"b": false}}}, {"name": "StatefulPartitionedCall/pip_line_explode_model/dense/Tensordot/concat_1", "op": "ConcatV2", "input": ["StatefulPartitionedCall/pip_line_explode_model/dense/Tensordot/GatherV2", "StatefulPartitionedCall/pip_line_explode_model/dense/Tensordot/Const_2", "StatefulPartitionedCall/pip_line_explode_model/dense/Tensordot/concat_1/axis"], "attr": {"N": {"i": "2"}, "T": {"type": "DT_INT32"}, "Tidx": {"type": "DT_INT32"}}}, {"name": "StatefulPartitionedCall/pip_line_explode_model/dense/Tensordot/stack", "op": "Pack", "input": ["StatefulPartitionedCall/pip_line_explode_model/dense/Tensordot/Prod", "StatefulPartitionedCall/pip_line_explode_model/dense/Tensordot/Prod_1"], "attr": {"N": {"i": "2"}, "axis": {"i": "0"}, "T": {"type": "DT_INT32"}}}, {"name": "StatefulPartitionedCall/pip_line_explode_model/dense/Tensordot/Reshape", "op": "Reshape", "input": ["StatefulPartitionedCall/pip_line_explode_model/batch_normalization/batchnorm/add_1", "StatefulPartitionedCall/pip_line_explode_model/dense/Tensordot/stack"], "attr": {"T": {"type": "DT_FLOAT"}, "Tshape": {"type": "DT_INT32"}}}, {"name": "StatefulPartitionedCall/pip_line_explode_model/dense/Tensordot/MatMul", "op": "MatMul", "input": ["StatefulPartitionedCall/pip_line_explode_model/dense/Tensordot/Reshape", "StatefulPartitionedCall/pip_line_explode_model/dense/Tensordot/ReadVariableOp"], "device": "/device:CPU:0", "attr": {"transpose_a": {"b": false}, "T": {"type": "DT_FLOAT"}, "transpose_b": {"b": false}}}, {"name": "StatefulPartitionedCall/pip_line_explode_model/dense/Tensordot", "op": "Reshape", "input": ["StatefulPartitionedCall/pip_line_explode_model/dense/Tensordot/MatMul", "StatefulPartitionedCall/pip_line_explode_model/dense/Tensordot/concat_1"], "attr": {"T": {"type": "DT_FLOAT"}, "Tshape": {"type": "DT_INT32"}}}, {"name": "StatefulPartitionedCall/pip_line_explode_model/dense/BiasAdd", "op": "BiasAdd", "input": ["StatefulPartitionedCall/pip_line_explode_model/dense/Tensordot", "StatefulPartitionedCall/pip_line_explode_model/dense/BiasAdd/ReadVariableOp"], "attr": {"data_format": {"s": "TkhXQw=="}, "T": {"type": "DT_FLOAT"}}}, {"name": "StatefulPartitionedCall/pip_line_explode_model/add", "op": "AddV2", "input": ["StatefulPartitionedCall/pip_line_explode_model/dense/BiasAdd", "StatefulPartitionedCall/pip_line_explode_model/embedding/embedding_lookup"], "attr": {"T": {"type": "DT_FLOAT"}}}, {"name": "StatefulPartitionedCall/pip_line_explode_model/time_series_transformer/dense_1/Tensordot/Shape", "op": "Shape", "input": ["StatefulPartitionedCall/pip_line_explode_model/add"], "attr": {"T": {"type": "DT_FLOAT"}, "out_type": {"type": "DT_INT32"}}, "experimentalType": {"typeId": "TFT_PRODUCT", "args": [{"typeId": "TFT_SHAPE_TENSOR", "args": [{"typeId": "TFT_INT32"}]}]}}, {"name": "StatefulPartitionedCall/pip_line_explode_model/time_series_transformer/dense_1/Tensordot/GatherV2_1", "op": "GatherV2", "input": ["StatefulPartitionedCall/pip_line_explode_model/time_series_transformer/dense_1/Tensordot/Shape", "StatefulPartitionedCall/pip_line_explode_model/time_series_transformer/dense_1/Tensordot/axes", "StatefulPartitionedCall/pip_line_explode_model/time_series_transformer/dense_1/Tensordot/GatherV2_1/axis"], "attr": {"Taxis": {"type": "DT_INT32"}, "Tparams": {"type": "DT_INT32"}, "Tindices": {"type": "DT_INT32"}, "batch_dims": {"i": "0"}}}, {"name": "StatefulPartitionedCall/pip_line_explode_model/time_series_transformer/dense_1/Tensordot/GatherV2", "op": "GatherV2", "input": ["StatefulPartitionedCall/pip_line_explode_model/time_series_transformer/dense_1/Tensordot/Shape", "StatefulPartitionedCall/pip_line_explode_model/time_series_transformer/dense_1/Tensordot/free", "StatefulPartitionedCall/pip_line_explode_model/time_series_transformer/dense_1/Tensordot/GatherV2/axis"], "attr": {"Taxis": {"type": "DT_INT32"}, "Tparams": {"type": "DT_INT32"}, "Tindices": {"type": "DT_INT32"}, "batch_dims": {"i": "0"}}}, {"name": "StatefulPartitionedCall/pip_line_explode_model/time_series_transformer/dense_1/Tensordot/Prod_1", "op": "Prod", "input": ["StatefulPartitionedCall/pip_line_explode_model/time_series_transformer/dense_1/Tensordot/GatherV2_1", "StatefulPartitionedCall/pip_line_explode_model/time_series_transformer/dense_1/Tensordot/Const_1"], "attr": {"Tidx": {"type": "DT_INT32"}, "T": {"type": "DT_INT32"}, "keep_dims": {"b": false}}}, {"name": "StatefulPartitionedCall/pip_line_explode_model/time_series_transformer/dense_1/Tensordot/Prod", "op": "Prod", "input": ["StatefulPartitionedCall/pip_line_explode_model/time_series_transformer/dense_1/Tensordot/GatherV2", "StatefulPartitionedCall/pip_line_explode_model/time_series_transformer/dense_1/Tensordot/Const"], "attr": {"Tidx": {"type": "DT_INT32"}, "T": {"type": "DT_INT32"}, "keep_dims": {"b": false}}}, {"name": "StatefulPartitionedCall/pip_line_explode_model/time_series_transformer/dense_1/Tensordot/concat_1", "op": "ConcatV2", "input": ["StatefulPartitionedCall/pip_line_explode_model/time_series_transformer/dense_1/Tensordot/GatherV2", "StatefulPartitionedCall/pip_line_explode_model/time_series_transformer/dense_1/Tensordot/Const_2", "StatefulPartitionedCall/pip_line_explode_model/time_series_transformer/dense_1/Tensordot/concat_1/axis"], "attr": {"N": {"i": "2"}, "Tidx": {"type": "DT_INT32"}, "T": {"type": "DT_INT32"}}}, {"name": "StatefulPartitionedCall/pip_line_explode_model/time_series_transformer/dense_1/Tensordot/stack", "op": "Pack", "input": ["StatefulPartitionedCall/pip_line_explode_model/time_series_transformer/dense_1/Tensordot/Prod", "StatefulPartitionedCall/pip_line_explode_model/time_series_transformer/dense_1/Tensordot/Prod_1"], "attr": {"N": {"i": "2"}, "axis": {"i": "0"}, "T": {"type": "DT_INT32"}}}, {"name": "StatefulPartitionedCall/pip_line_explode_model/time_series_transformer/dense_1/Tensordot/Reshape", "op": "Reshape", "input": ["StatefulPartitionedCall/pip_line_explode_model/add", "StatefulPartitionedCall/pip_line_explode_model/time_series_transformer/dense_1/Tensordot/stack"], "attr": {"T": {"type": "DT_FLOAT"}, "Tshape": {"type": "DT_INT32"}}}, {"name": "StatefulPartitionedCall/pip_line_explode_model/time_series_transformer/dense_1/Tensordot/MatMul", "op": "MatMul", "input": ["StatefulPartitionedCall/pip_line_explode_model/time_series_transformer/dense_1/Tensordot/Reshape", "StatefulPartitionedCall/pip_line_explode_model/time_series_transformer/dense_1/Tensordot/ReadVariableOp"], "device": "/device:CPU:0", "attr": {"transpose_a": {"b": false}, "T": {"type": "DT_FLOAT"}, "transpose_b": {"b": false}}}, {"name": "StatefulPartitionedCall/pip_line_explode_model/time_series_transformer/dense_1/Tensordot", "op": "Reshape", "input": ["StatefulPartitionedCall/pip_line_explode_model/time_series_transformer/dense_1/Tensordot/MatMul", "StatefulPartitionedCall/pip_line_explode_model/time_series_transformer/dense_1/Tensordot/concat_1"], "attr": {"T": {"type": "DT_FLOAT"}, "Tshape": {"type": "DT_INT32"}}}, {"name": "StatefulPartitionedCall/pip_line_explode_model/time_series_transformer/dense_1/BiasAdd", "op": "BiasAdd", "input": ["StatefulPartitionedCall/pip_line_explode_model/time_series_transformer/dense_1/Tensordot", "StatefulPartitionedCall/pip_line_explode_model/time_series_transformer/dense_1/BiasAdd/ReadVariableOp"], "attr": {"data_format": {"s": "TkhXQw=="}, "T": {"type": "DT_FLOAT"}}}, {"name": "StatefulPartitionedCall/pip_line_explode_model/time_series_transformer/transformer_decoder_layer/multi_head_attention_1/key/einsum/Einsum", "op": "Einsum", "input": ["StatefulPartitionedCall/pip_line_explode_model/time_series_transformer/dense_1/BiasAdd", "StatefulPartitionedCall/pip_line_explode_model/time_series_transformer/transformer_decoder_layer/multi_head_attention_1/key/einsum/Einsum/ReadVariableOp"], "attr": {"N": {"i": "2"}, "equation": {"s": "YWJjLGNkZS0+YWJkZQ=="}, "T": {"type": "DT_FLOAT"}}}, {"name": "StatefulPartitionedCall/pip_line_explode_model/time_series_transformer/transformer_decoder_layer/multi_head_attention/key/einsum/Einsum", "op": "Einsum", "input": ["StatefulPartitionedCall/pip_line_explode_model/time_series_transformer/dense_1/BiasAdd", "StatefulPartitionedCall/pip_line_explode_model/time_series_transformer/transformer_decoder_layer/multi_head_attention/key/einsum/Einsum/ReadVariableOp"], "attr": {"N": {"i": "2"}, "equation": {"s": "YWJjLGNkZS0+YWJkZQ=="}, "T": {"type": "DT_FLOAT"}}}, {"name": "StatefulPartitionedCall/pip_line_explode_model/time_series_transformer/transformer_decoder_layer/multi_head_attention/query/einsum/Einsum", "op": "Einsum", "input": ["StatefulPartitionedCall/pip_line_explode_model/time_series_transformer/dense_1/BiasAdd", "StatefulPartitionedCall/pip_line_explode_model/time_series_transformer/transformer_decoder_layer/multi_head_attention/query/einsum/Einsum/ReadVariableOp"], "attr": {"N": {"i": "2"}, "equation": {"s": "YWJjLGNkZS0+YWJkZQ=="}, "T": {"type": "DT_FLOAT"}}}, {"name": "StatefulPartitionedCall/pip_line_explode_model/time_series_transformer/transformer_decoder_layer/multi_head_attention/value/einsum/Einsum", "op": "Einsum", "input": ["StatefulPartitionedCall/pip_line_explode_model/time_series_transformer/dense_1/BiasAdd", "StatefulPartitionedCall/pip_line_explode_model/time_series_transformer/transformer_decoder_layer/multi_head_attention/value/einsum/Einsum/ReadVariableOp"], "attr": {"N": {"i": "2"}, "equation": {"s": "YWJjLGNkZS0+YWJkZQ=="}, "T": {"type": "DT_FLOAT"}}}, {"name": "StatefulPartitionedCall/pip_line_explode_model/time_series_transformer/transformer_decoder_layer/multi_head_attention_1/value/einsum/Einsum", "op": "Einsum", "input": ["StatefulPartitionedCall/pip_line_explode_model/time_series_transformer/dense_1/BiasAdd", "StatefulPartitionedCall/pip_line_explode_model/time_series_transformer/transformer_decoder_layer/multi_head_attention_1/value/einsum/Einsum/ReadVariableOp"], "attr": {"N": {"i": "2"}, "equation": {"s": "YWJjLGNkZS0+YWJkZQ=="}, "T": {"type": "DT_FLOAT"}}}, {"name": "StatefulPartitionedCall/pip_line_explode_model/time_series_transformer/transformer_decoder_layer/multi_head_attention_1/key/add", "op": "AddV2", "input": ["StatefulPartitionedCall/pip_line_explode_model/time_series_transformer/transformer_decoder_layer/multi_head_attention_1/key/einsum/Einsum", "StatefulPartitionedCall/pip_line_explode_model/time_series_transformer/transformer_decoder_layer/multi_head_attention_1/key/add/ReadVariableOp"], "attr": {"T": {"type": "DT_FLOAT"}}}, {"name": "StatefulPartitionedCall/pip_line_explode_model/time_series_transformer/transformer_decoder_layer/multi_head_attention/key/add", "op": "AddV2", "input": ["StatefulPartitionedCall/pip_line_explode_model/time_series_transformer/transformer_decoder_layer/multi_head_attention/key/einsum/Einsum", "StatefulPartitionedCall/pip_line_explode_model/time_series_transformer/transformer_decoder_layer/multi_head_attention/key/add/ReadVariableOp"], "attr": {"T": {"type": "DT_FLOAT"}}}, {"name": "StatefulPartitionedCall/pip_line_explode_model/time_series_transformer/transformer_decoder_layer/multi_head_attention/query/add", "op": "AddV2", "input": ["StatefulPartitionedCall/pip_line_explode_model/time_series_transformer/transformer_decoder_layer/multi_head_attention/query/einsum/Einsum", "StatefulPartitionedCall/pip_line_explode_model/time_series_transformer/transformer_decoder_layer/multi_head_attention/query/add/ReadVariableOp"], "attr": {"T": {"type": "DT_FLOAT"}}}, {"name": "StatefulPartitionedCall/pip_line_explode_model/time_series_transformer/transformer_decoder_layer/multi_head_attention/value/add", "op": "AddV2", "input": ["StatefulPartitionedCall/pip_line_explode_model/time_series_transformer/transformer_decoder_layer/multi_head_attention/value/einsum/Einsum", "StatefulPartitionedCall/pip_line_explode_model/time_series_transformer/transformer_decoder_layer/multi_head_attention/value/add/ReadVariableOp"], "attr": {"T": {"type": "DT_FLOAT"}}}, {"name": "StatefulPartitionedCall/pip_line_explode_model/time_series_transformer/transformer_decoder_layer/multi_head_attention_1/value/add", "op": "AddV2", "input": ["StatefulPartitionedCall/pip_line_explode_model/time_series_transformer/transformer_decoder_layer/multi_head_attention_1/value/einsum/Einsum", "StatefulPartitionedCall/pip_line_explode_model/time_series_transformer/transformer_decoder_layer/multi_head_attention_1/value/add/ReadVariableOp"], "attr": {"T": {"type": "DT_FLOAT"}}}, {"name": "StatefulPartitionedCall/pip_line_explode_model/time_series_transformer/transformer_decoder_layer/multi_head_attention/Mul", "op": "Mul", "input": ["StatefulPartitionedCall/pip_line_explode_model/time_series_transformer/transformer_decoder_layer/multi_head_attention/query/add", "StatefulPartitionedCall/pip_line_explode_model/time_series_transformer/transformer_decoder_layer/multi_head_attention/Mul/y"], "attr": {"T": {"type": "DT_FLOAT"}}}, {"name": "StatefulPartitionedCall/pip_line_explode_model/time_series_transformer/transformer_decoder_layer/multi_head_attention/einsum/Einsum", "op": "Einsum", "input": ["StatefulPartitionedCall/pip_line_explode_model/time_series_transformer/transformer_decoder_layer/multi_head_attention/key/add", "StatefulPartitionedCall/pip_line_explode_model/time_series_transformer/transformer_decoder_layer/multi_head_attention/Mul"], "attr": {"equation": {"s": "YWVjZCxhYmNkLT5hY2Jl"}, "N": {"i": "2"}, "T": {"type": "DT_FLOAT"}}}, {"name": "StatefulPartitionedCall/pip_line_explode_model/time_series_transformer/transformer_decoder_layer/multi_head_attention/softmax/add", "op": "AddV2", "input": ["StatefulPartitionedCall/pip_line_explode_model/time_series_transformer/transformer_decoder_layer/multi_head_attention/einsum/Einsum", "StatefulPartitionedCall/pip_line_explode_model/time_series_transformer/transformer_decoder_layer/multi_head_attention/softmax/mul"], "attr": {"T": {"type": "DT_FLOAT"}}}, {"name": "StatefulPartitionedCall/pip_line_explode_model/time_series_transformer/transformer_decoder_layer/multi_head_attention/softmax/Softmax", "op": "Softmax", "input": ["StatefulPartitionedCall/pip_line_explode_model/time_series_transformer/transformer_decoder_layer/multi_head_attention/softmax/add"], "attr": {"T": {"type": "DT_FLOAT"}}}, {"name": "StatefulPartitionedCall/pip_line_explode_model/time_series_transformer/transformer_decoder_layer/multi_head_attention/einsum_1/Einsum", "op": "Einsum", "input": ["StatefulPartitionedCall/pip_line_explode_model/time_series_transformer/transformer_decoder_layer/multi_head_attention/softmax/Softmax", "StatefulPartitionedCall/pip_line_explode_model/time_series_transformer/transformer_decoder_layer/multi_head_attention/value/add"], "attr": {"equation": {"s": "YWNiZSxhZWNkLT5hYmNk"}, "N": {"i": "2"}, "T": {"type": "DT_FLOAT"}}}, {"name": "StatefulPartitionedCall/pip_line_explode_model/time_series_transformer/transformer_decoder_layer/multi_head_attention/attention_output/einsum/Einsum", "op": "Einsum", "input": ["StatefulPartitionedCall/pip_line_explode_model/time_series_transformer/transformer_decoder_layer/multi_head_attention/einsum_1/Einsum", "StatefulPartitionedCall/pip_line_explode_model/time_series_transformer/transformer_decoder_layer/multi_head_attention/attention_output/einsum/Einsum/ReadVariableOp"], "attr": {"N": {"i": "2"}, "equation": {"s": "YWJjZCxjZGUtPmFiZQ=="}, "T": {"type": "DT_FLOAT"}}}, {"name": "StatefulPartitionedCall/pip_line_explode_model/time_series_transformer/transformer_decoder_layer/ArithmeticOptimizer/AddOpsRewrite_Leaf_1_add", "op": "AddN", "input": ["StatefulPartitionedCall/pip_line_explode_model/time_series_transformer/dense_1/BiasAdd", "StatefulPartitionedCall/pip_line_explode_model/time_series_transformer/transformer_decoder_layer/multi_head_attention/attention_output/einsum/Einsum"], "attr": {"N": {"i": "2"}, "T": {"type": "DT_FLOAT"}, "_grappler_ArithmeticOptimizer_AddOpsRewriteStage": {"b": true}}}, {"name": "StatefulPartitionedCall/pip_line_explode_model/time_series_transformer/transformer_decoder_layer/ArithmeticOptimizer/AddOpsRewrite_add", "op": "AddV2", "input": ["StatefulPartitionedCall/pip_line_explode_model/time_series_transformer/transformer_decoder_layer/multi_head_attention/attention_output/add/ReadVariableOp", "StatefulPartitionedCall/pip_line_explode_model/time_series_transformer/transformer_decoder_layer/ArithmeticOptimizer/AddOpsRewrite_Leaf_1_add"], "attr": {"T": {"type": "DT_FLOAT"}, "_grappler_ArithmeticOptimizer_AddOpsRewriteStage": {"b": true}}}, {"name": "StatefulPartitionedCall/pip_line_explode_model/time_series_transformer/transformer_decoder_layer/layer_normalization/moments/mean", "op": "Mean", "input": ["StatefulPartitionedCall/pip_line_explode_model/time_series_transformer/transformer_decoder_layer/ArithmeticOptimizer/AddOpsRewrite_add", "StatefulPartitionedCall/pip_line_explode_model/time_series_transformer/transformer_decoder_layer/layer_normalization/moments/mean/reduction_indices"], "attr": {"T": {"type": "DT_FLOAT"}, "Tidx": {"type": "DT_INT32"}, "keep_dims": {"b": true}}}, {"name": "StatefulPartitionedCall/pip_line_explode_model/time_series_transformer/transformer_decoder_layer/layer_normalization/moments/SquaredDifference", "op": "SquaredDifference", "input": ["StatefulPartitionedCall/pip_line_explode_model/time_series_transformer/transformer_decoder_layer/ArithmeticOptimizer/AddOpsRewrite_add", "StatefulPartitionedCall/pip_line_explode_model/time_series_transformer/transformer_decoder_layer/layer_normalization/moments/mean"], "attr": {"T": {"type": "DT_FLOAT"}}}, {"name": "StatefulPartitionedCall/pip_line_explode_model/time_series_transformer/transformer_decoder_layer/layer_normalization/moments/variance", "op": "Mean", "input": ["StatefulPartitionedCall/pip_line_explode_model/time_series_transformer/transformer_decoder_layer/layer_normalization/moments/SquaredDifference", "StatefulPartitionedCall/pip_line_explode_model/time_series_transformer/transformer_decoder_layer/layer_normalization/moments/variance/reduction_indices"], "attr": {"T": {"type": "DT_FLOAT"}, "Tidx": {"type": "DT_INT32"}, "keep_dims": {"b": true}}}, {"name": "StatefulPartitionedCall/pip_line_explode_model/time_series_transformer/transformer_decoder_layer/layer_normalization/batchnorm/add", "op": "AddV2", "input": ["StatefulPartitionedCall/pip_line_explode_model/time_series_transformer/transformer_decoder_layer/layer_normalization/moments/variance", "StatefulPartitionedCall/pip_line_explode_model/time_series_transformer/transformer_decoder_layer/layer_normalization/batchnorm/add/y"], "attr": {"T": {"type": "DT_FLOAT"}}}, {"name": "StatefulPartitionedCall/pip_line_explode_model/time_series_transformer/transformer_decoder_layer/layer_normalization/batchnorm/Rsqrt", "op": "Rsqrt", "input": ["StatefulPartitionedCall/pip_line_explode_model/time_series_transformer/transformer_decoder_layer/layer_normalization/batchnorm/add"], "attr": {"T": {"type": "DT_FLOAT"}}}, {"name": "StatefulPartitionedCall/pip_line_explode_model/time_series_transformer/transformer_decoder_layer/layer_normalization/batchnorm/mul", "op": "Mul", "input": ["StatefulPartitionedCall/pip_line_explode_model/time_series_transformer/transformer_decoder_layer/layer_normalization/batchnorm/Rsqrt", "StatefulPartitionedCall/pip_line_explode_model/time_series_transformer/transformer_decoder_layer/layer_normalization/batchnorm/mul/ReadVariableOp"], "attr": {"T": {"type": "DT_FLOAT"}}}, {"name": "StatefulPartitionedCall/pip_line_explode_model/time_series_transformer/transformer_decoder_layer/layer_normalization/batchnorm/mul_2", "op": "Mul", "input": ["StatefulPartitionedCall/pip_line_explode_model/time_series_transformer/transformer_decoder_layer/layer_normalization/moments/mean", "StatefulPartitionedCall/pip_line_explode_model/time_series_transformer/transformer_decoder_layer/layer_normalization/batchnorm/mul"], "attr": {"T": {"type": "DT_FLOAT"}}}, {"name": "StatefulPartitionedCall/pip_line_explode_model/time_series_transformer/transformer_decoder_layer/layer_normalization/batchnorm/mul_1", "op": "Mul", "input": ["StatefulPartitionedCall/pip_line_explode_model/time_series_transformer/transformer_decoder_layer/ArithmeticOptimizer/AddOpsRewrite_add", "StatefulPartitionedCall/pip_line_explode_model/time_series_transformer/transformer_decoder_layer/layer_normalization/batchnorm/mul"], "attr": {"T": {"type": "DT_FLOAT"}}}, {"name": "StatefulPartitionedCall/pip_line_explode_model/time_series_transformer/transformer_decoder_layer/layer_normalization/batchnorm/sub", "op": "Sub", "input": ["StatefulPartitionedCall/pip_line_explode_model/time_series_transformer/transformer_decoder_layer/layer_normalization/batchnorm/ReadVariableOp", "StatefulPartitionedCall/pip_line_explode_model/time_series_transformer/transformer_decoder_layer/layer_normalization/batchnorm/mul_2"], "attr": {"T": {"type": "DT_FLOAT"}}}, {"name": "StatefulPartitionedCall/pip_line_explode_model/time_series_transformer/transformer_decoder_layer/layer_normalization/batchnorm/add_1", "op": "AddV2", "input": ["StatefulPartitionedCall/pip_line_explode_model/time_series_transformer/transformer_decoder_layer/layer_normalization/batchnorm/mul_1", "StatefulPartitionedCall/pip_line_explode_model/time_series_transformer/transformer_decoder_layer/layer_normalization/batchnorm/sub"], "attr": {"T": {"type": "DT_FLOAT"}}}, {"name": "StatefulPartitionedCall/pip_line_explode_model/time_series_transformer/transformer_decoder_layer/multi_head_attention_1/query/einsum/Einsum", "op": "Einsum", "input": ["StatefulPartitionedCall/pip_line_explode_model/time_series_transformer/transformer_decoder_layer/layer_normalization/batchnorm/add_1", "StatefulPartitionedCall/pip_line_explode_model/time_series_transformer/transformer_decoder_layer/multi_head_attention_1/query/einsum/Einsum/ReadVariableOp"], "attr": {"N": {"i": "2"}, "equation": {"s": "YWJjLGNkZS0+YWJkZQ=="}, "T": {"type": "DT_FLOAT"}}}, {"name": "StatefulPartitionedCall/pip_line_explode_model/time_series_transformer/transformer_decoder_layer/multi_head_attention_1/query/add", "op": "AddV2", "input": ["StatefulPartitionedCall/pip_line_explode_model/time_series_transformer/transformer_decoder_layer/multi_head_attention_1/query/einsum/Einsum", "StatefulPartitionedCall/pip_line_explode_model/time_series_transformer/transformer_decoder_layer/multi_head_attention_1/query/add/ReadVariableOp"], "attr": {"T": {"type": "DT_FLOAT"}}}, {"name": "StatefulPartitionedCall/pip_line_explode_model/time_series_transformer/transformer_decoder_layer/multi_head_attention_1/Mul", "op": "Mul", "input": ["StatefulPartitionedCall/pip_line_explode_model/time_series_transformer/transformer_decoder_layer/multi_head_attention_1/query/add", "StatefulPartitionedCall/pip_line_explode_model/time_series_transformer/transformer_decoder_layer/multi_head_attention_1/Mul/y"], "attr": {"T": {"type": "DT_FLOAT"}}}, {"name": "StatefulPartitionedCall/pip_line_explode_model/time_series_transformer/transformer_decoder_layer/multi_head_attention_1/einsum/Einsum", "op": "Einsum", "input": ["StatefulPartitionedCall/pip_line_explode_model/time_series_transformer/transformer_decoder_layer/multi_head_attention_1/key/add", "StatefulPartitionedCall/pip_line_explode_model/time_series_transformer/transformer_decoder_layer/multi_head_attention_1/Mul"], "attr": {"N": {"i": "2"}, "equation": {"s": "YWVjZCxhYmNkLT5hY2Jl"}, "T": {"type": "DT_FLOAT"}}}, {"name": "StatefulPartitionedCall/pip_line_explode_model/time_series_transformer/transformer_decoder_layer/multi_head_attention_1/softmax_1/Softmax", "op": "Softmax", "input": ["StatefulPartitionedCall/pip_line_explode_model/time_series_transformer/transformer_decoder_layer/multi_head_attention_1/einsum/Einsum"], "attr": {"T": {"type": "DT_FLOAT"}}}, {"name": "StatefulPartitionedCall/pip_line_explode_model/time_series_transformer/transformer_decoder_layer/multi_head_attention_1/einsum_1/Einsum", "op": "Einsum", "input": ["StatefulPartitionedCall/pip_line_explode_model/time_series_transformer/transformer_decoder_layer/multi_head_attention_1/softmax_1/Softmax", "StatefulPartitionedCall/pip_line_explode_model/time_series_transformer/transformer_decoder_layer/multi_head_attention_1/value/add"], "attr": {"N": {"i": "2"}, "equation": {"s": "YWNiZSxhZWNkLT5hYmNk"}, "T": {"type": "DT_FLOAT"}}}, {"name": "StatefulPartitionedCall/pip_line_explode_model/time_series_transformer/transformer_decoder_layer/multi_head_attention_1/attention_output/einsum/Einsum", "op": "Einsum", "input": ["StatefulPartitionedCall/pip_line_explode_model/time_series_transformer/transformer_decoder_layer/multi_head_attention_1/einsum_1/Einsum", "StatefulPartitionedCall/pip_line_explode_model/time_series_transformer/transformer_decoder_layer/multi_head_attention_1/attention_output/einsum/Einsum/ReadVariableOp"], "attr": {"N": {"i": "2"}, "equation": {"s": "YWJjZCxjZGUtPmFiZQ=="}, "T": {"type": "DT_FLOAT"}}}, {"name": "StatefulPartitionedCall/pip_line_explode_model/time_series_transformer/transformer_decoder_layer/ArithmeticOptimizer/AddOpsRewrite_Leaf_1_add_1", "op": "AddN", "input": ["StatefulPartitionedCall/pip_line_explode_model/time_series_transformer/transformer_decoder_layer/layer_normalization/batchnorm/add_1", "StatefulPartitionedCall/pip_line_explode_model/time_series_transformer/transformer_decoder_layer/multi_head_attention_1/attention_output/einsum/Einsum"], "attr": {"N": {"i": "2"}, "T": {"type": "DT_FLOAT"}, "_grappler_ArithmeticOptimizer_AddOpsRewriteStage": {"b": true}}}, {"name": "StatefulPartitionedCall/pip_line_explode_model/time_series_transformer/transformer_decoder_layer/ArithmeticOptimizer/AddOpsRewrite_add_1", "op": "AddV2", "input": ["StatefulPartitionedCall/pip_line_explode_model/time_series_transformer/transformer_decoder_layer/multi_head_attention_1/attention_output/add/ReadVariableOp", "StatefulPartitionedCall/pip_line_explode_model/time_series_transformer/transformer_decoder_layer/ArithmeticOptimizer/AddOpsRewrite_Leaf_1_add_1"], "attr": {"T": {"type": "DT_FLOAT"}, "_grappler_ArithmeticOptimizer_AddOpsRewriteStage": {"b": true}}}, {"name": "StatefulPartitionedCall/pip_line_explode_model/time_series_transformer/transformer_decoder_layer/layer_normalization_1/moments/mean", "op": "Mean", "input": ["StatefulPartitionedCall/pip_line_explode_model/time_series_transformer/transformer_decoder_layer/ArithmeticOptimizer/AddOpsRewrite_add_1", "StatefulPartitionedCall/pip_line_explode_model/time_series_transformer/transformer_decoder_layer/layer_normalization_1/moments/mean/reduction_indices"], "attr": {"T": {"type": "DT_FLOAT"}, "Tidx": {"type": "DT_INT32"}, "keep_dims": {"b": true}}}, {"name": "StatefulPartitionedCall/pip_line_explode_model/time_series_transformer/transformer_decoder_layer/layer_normalization_1/moments/SquaredDifference", "op": "SquaredDifference", "input": ["StatefulPartitionedCall/pip_line_explode_model/time_series_transformer/transformer_decoder_layer/ArithmeticOptimizer/AddOpsRewrite_add_1", "StatefulPartitionedCall/pip_line_explode_model/time_series_transformer/transformer_decoder_layer/layer_normalization_1/moments/mean"], "attr": {"T": {"type": "DT_FLOAT"}}}, {"name": "StatefulPartitionedCall/pip_line_explode_model/time_series_transformer/transformer_decoder_layer/layer_normalization_1/moments/variance", "op": "Mean", "input": ["StatefulPartitionedCall/pip_line_explode_model/time_series_transformer/transformer_decoder_layer/layer_normalization_1/moments/SquaredDifference", "StatefulPartitionedCall/pip_line_explode_model/time_series_transformer/transformer_decoder_layer/layer_normalization_1/moments/variance/reduction_indices"], "attr": {"Tidx": {"type": "DT_INT32"}, "T": {"type": "DT_FLOAT"}, "keep_dims": {"b": true}}}, {"name": "StatefulPartitionedCall/pip_line_explode_model/time_series_transformer/transformer_decoder_layer/layer_normalization_1/batchnorm/add", "op": "AddV2", "input": ["StatefulPartitionedCall/pip_line_explode_model/time_series_transformer/transformer_decoder_layer/layer_normalization_1/moments/variance", "StatefulPartitionedCall/pip_line_explode_model/time_series_transformer/transformer_decoder_layer/layer_normalization_1/batchnorm/add/y"], "attr": {"T": {"type": "DT_FLOAT"}}}, {"name": "StatefulPartitionedCall/pip_line_explode_model/time_series_transformer/transformer_decoder_layer/layer_normalization_1/batchnorm/Rsqrt", "op": "Rsqrt", "input": ["StatefulPartitionedCall/pip_line_explode_model/time_series_transformer/transformer_decoder_layer/layer_normalization_1/batchnorm/add"], "attr": {"T": {"type": "DT_FLOAT"}}}, {"name": "StatefulPartitionedCall/pip_line_explode_model/time_series_transformer/transformer_decoder_layer/layer_normalization_1/batchnorm/mul", "op": "Mul", "input": ["StatefulPartitionedCall/pip_line_explode_model/time_series_transformer/transformer_decoder_layer/layer_normalization_1/batchnorm/Rsqrt", "StatefulPartitionedCall/pip_line_explode_model/time_series_transformer/transformer_decoder_layer/layer_normalization_1/batchnorm/mul/ReadVariableOp"], "attr": {"T": {"type": "DT_FLOAT"}}}, {"name": "StatefulPartitionedCall/pip_line_explode_model/time_series_transformer/transformer_decoder_layer/layer_normalization_1/batchnorm/mul_2", "op": "Mul", "input": ["StatefulPartitionedCall/pip_line_explode_model/time_series_transformer/transformer_decoder_layer/layer_normalization_1/moments/mean", "StatefulPartitionedCall/pip_line_explode_model/time_series_transformer/transformer_decoder_layer/layer_normalization_1/batchnorm/mul"], "attr": {"T": {"type": "DT_FLOAT"}}}, {"name": "StatefulPartitionedCall/pip_line_explode_model/time_series_transformer/transformer_decoder_layer/layer_normalization_1/batchnorm/mul_1", "op": "Mul", "input": ["StatefulPartitionedCall/pip_line_explode_model/time_series_transformer/transformer_decoder_layer/ArithmeticOptimizer/AddOpsRewrite_add_1", "StatefulPartitionedCall/pip_line_explode_model/time_series_transformer/transformer_decoder_layer/layer_normalization_1/batchnorm/mul"], "attr": {"T": {"type": "DT_FLOAT"}}}, {"name": "StatefulPartitionedCall/pip_line_explode_model/time_series_transformer/transformer_decoder_layer/layer_normalization_1/batchnorm/sub", "op": "Sub", "input": ["StatefulPartitionedCall/pip_line_explode_model/time_series_transformer/transformer_decoder_layer/layer_normalization_1/batchnorm/ReadVariableOp", "StatefulPartitionedCall/pip_line_explode_model/time_series_transformer/transformer_decoder_layer/layer_normalization_1/batchnorm/mul_2"], "attr": {"T": {"type": "DT_FLOAT"}}}, {"name": "StatefulPartitionedCall/pip_line_explode_model/time_series_transformer/transformer_decoder_layer/layer_normalization_1/batchnorm/add_1", "op": "AddV2", "input": ["StatefulPartitionedCall/pip_line_explode_model/time_series_transformer/transformer_decoder_layer/layer_normalization_1/batchnorm/mul_1", "StatefulPartitionedCall/pip_line_explode_model/time_series_transformer/transformer_decoder_layer/layer_normalization_1/batchnorm/sub"], "attr": {"T": {"type": "DT_FLOAT"}}}, {"name": "StatefulPartitionedCall/pip_line_explode_model/time_series_transformer/transformer_decoder_layer/sequential/dense_2/Tensordot/Shape", "op": "Shape", "input": ["StatefulPartitionedCall/pip_line_explode_model/time_series_transformer/transformer_decoder_layer/layer_normalization_1/batchnorm/add_1"], "attr": {"T": {"type": "DT_FLOAT"}, "out_type": {"type": "DT_INT32"}}, "experimentalType": {"typeId": "TFT_PRODUCT", "args": [{"typeId": "TFT_SHAPE_TENSOR", "args": [{"typeId": "TFT_INT32"}]}]}}, {"name": "StatefulPartitionedCall/pip_line_explode_model/time_series_transformer/transformer_decoder_layer/sequential/dense_2/Tensordot/GatherV2_1", "op": "GatherV2", "input": ["StatefulPartitionedCall/pip_line_explode_model/time_series_transformer/transformer_decoder_layer/sequential/dense_2/Tensordot/Shape", "StatefulPartitionedCall/pip_line_explode_model/time_series_transformer/transformer_decoder_layer/sequential/dense_2/Tensordot/axes", "StatefulPartitionedCall/pip_line_explode_model/time_series_transformer/transformer_decoder_layer/sequential/dense_2/Tensordot/GatherV2_1/axis"], "attr": {"Taxis": {"type": "DT_INT32"}, "Tparams": {"type": "DT_INT32"}, "Tindices": {"type": "DT_INT32"}, "batch_dims": {"i": "0"}}}, {"name": "StatefulPartitionedCall/pip_line_explode_model/time_series_transformer/transformer_decoder_layer/sequential/dense_2/Tensordot/GatherV2", "op": "GatherV2", "input": ["StatefulPartitionedCall/pip_line_explode_model/time_series_transformer/transformer_decoder_layer/sequential/dense_2/Tensordot/Shape", "StatefulPartitionedCall/pip_line_explode_model/time_series_transformer/transformer_decoder_layer/sequential/dense_2/Tensordot/free", "StatefulPartitionedCall/pip_line_explode_model/time_series_transformer/transformer_decoder_layer/sequential/dense_2/Tensordot/GatherV2/axis"], "attr": {"Tparams": {"type": "DT_INT32"}, "Taxis": {"type": "DT_INT32"}, "Tindices": {"type": "DT_INT32"}, "batch_dims": {"i": "0"}}}, {"name": "StatefulPartitionedCall/pip_line_explode_model/time_series_transformer/transformer_decoder_layer/sequential/dense_2/Tensordot/Prod_1", "op": "Prod", "input": ["StatefulPartitionedCall/pip_line_explode_model/time_series_transformer/transformer_decoder_layer/sequential/dense_2/Tensordot/GatherV2_1", "StatefulPartitionedCall/pip_line_explode_model/time_series_transformer/transformer_decoder_layer/sequential/dense_2/Tensordot/Const_1"], "attr": {"Tidx": {"type": "DT_INT32"}, "T": {"type": "DT_INT32"}, "keep_dims": {"b": false}}}, {"name": "StatefulPartitionedCall/pip_line_explode_model/time_series_transformer/transformer_decoder_layer/sequential/dense_2/Tensordot/Prod", "op": "Prod", "input": ["StatefulPartitionedCall/pip_line_explode_model/time_series_transformer/transformer_decoder_layer/sequential/dense_2/Tensordot/GatherV2", "StatefulPartitionedCall/pip_line_explode_model/time_series_transformer/transformer_decoder_layer/sequential/dense_2/Tensordot/Const"], "attr": {"T": {"type": "DT_INT32"}, "Tidx": {"type": "DT_INT32"}, "keep_dims": {"b": false}}}, {"name": "StatefulPartitionedCall/pip_line_explode_model/time_series_transformer/transformer_decoder_layer/sequential/dense_2/Tensordot/concat_1", "op": "ConcatV2", "input": ["StatefulPartitionedCall/pip_line_explode_model/time_series_transformer/transformer_decoder_layer/sequential/dense_2/Tensordot/GatherV2", "StatefulPartitionedCall/pip_line_explode_model/time_series_transformer/transformer_decoder_layer/sequential/dense_2/Tensordot/Const_2", "StatefulPartitionedCall/pip_line_explode_model/time_series_transformer/transformer_decoder_layer/sequential/dense_2/Tensordot/concat_1/axis"], "attr": {"N": {"i": "2"}, "Tidx": {"type": "DT_INT32"}, "T": {"type": "DT_INT32"}}}, {"name": "StatefulPartitionedCall/pip_line_explode_model/time_series_transformer/transformer_decoder_layer/sequential/dense_2/Tensordot/stack", "op": "Pack", "input": ["StatefulPartitionedCall/pip_line_explode_model/time_series_transformer/transformer_decoder_layer/sequential/dense_2/Tensordot/Prod", "StatefulPartitionedCall/pip_line_explode_model/time_series_transformer/transformer_decoder_layer/sequential/dense_2/Tensordot/Prod_1"], "attr": {"N": {"i": "2"}, "axis": {"i": "0"}, "T": {"type": "DT_INT32"}}}, {"name": "StatefulPartitionedCall/pip_line_explode_model/time_series_transformer/transformer_decoder_layer/sequential/dense_2/Tensordot/Reshape", "op": "Reshape", "input": ["StatefulPartitionedCall/pip_line_explode_model/time_series_transformer/transformer_decoder_layer/layer_normalization_1/batchnorm/add_1", "StatefulPartitionedCall/pip_line_explode_model/time_series_transformer/transformer_decoder_layer/sequential/dense_2/Tensordot/stack"], "attr": {"T": {"type": "DT_FLOAT"}, "Tshape": {"type": "DT_INT32"}}}, {"name": "StatefulPartitionedCall/pip_line_explode_model/time_series_transformer/transformer_decoder_layer/sequential/dense_2/Tensordot/MatMul", "op": "MatMul", "input": ["StatefulPartitionedCall/pip_line_explode_model/time_series_transformer/transformer_decoder_layer/sequential/dense_2/Tensordot/Reshape", "StatefulPartitionedCall/pip_line_explode_model/time_series_transformer/transformer_decoder_layer/sequential/dense_2/Tensordot/ReadVariableOp"], "device": "/device:CPU:0", "attr": {"transpose_a": {"b": false}, "T": {"type": "DT_FLOAT"}, "transpose_b": {"b": false}}}, {"name": "StatefulPartitionedCall/pip_line_explode_model/time_series_transformer/transformer_decoder_layer/sequential/dense_2/Tensordot", "op": "Reshape", "input": ["StatefulPartitionedCall/pip_line_explode_model/time_series_transformer/transformer_decoder_layer/sequential/dense_2/Tensordot/MatMul", "StatefulPartitionedCall/pip_line_explode_model/time_series_transformer/transformer_decoder_layer/sequential/dense_2/Tensordot/concat_1"], "attr": {"T": {"type": "DT_FLOAT"}, "Tshape": {"type": "DT_INT32"}}}, {"name": "StatefulPartitionedCall/pip_line_explode_model/time_series_transformer/transformer_decoder_layer/sequential/dense_2/BiasAdd", "op": "BiasAdd", "input": ["StatefulPartitionedCall/pip_line_explode_model/time_series_transformer/transformer_decoder_layer/sequential/dense_2/Tensordot", "StatefulPartitionedCall/pip_line_explode_model/time_series_transformer/transformer_decoder_layer/sequential/dense_2/BiasAdd/ReadVariableOp"], "attr": {"data_format": {"s": "TkhXQw=="}, "T": {"type": "DT_FLOAT"}}}, {"name": "StatefulPartitionedCall/pip_line_explode_model/time_series_transformer/transformer_decoder_layer/sequential/dense_2/Relu", "op": "Relu", "input": ["StatefulPartitionedCall/pip_line_explode_model/time_series_transformer/transformer_decoder_layer/sequential/dense_2/BiasAdd"], "attr": {"T": {"type": "DT_FLOAT"}}}, {"name": "StatefulPartitionedCall/pip_line_explode_model/time_series_transformer/transformer_decoder_layer/sequential/dense_3/Tensordot/Shape", "op": "Shape", "input": ["StatefulPartitionedCall/pip_line_explode_model/time_series_transformer/transformer_decoder_layer/sequential/dense_2/Relu"], "attr": {"T": {"type": "DT_FLOAT"}, "out_type": {"type": "DT_INT32"}}, "experimentalType": {"typeId": "TFT_PRODUCT", "args": [{"typeId": "TFT_SHAPE_TENSOR", "args": [{"typeId": "TFT_INT32"}]}]}}, {"name": "StatefulPartitionedCall/pip_line_explode_model/time_series_transformer/transformer_decoder_layer/sequential/dense_3/Tensordot/GatherV2_1", "op": "GatherV2", "input": ["StatefulPartitionedCall/pip_line_explode_model/time_series_transformer/transformer_decoder_layer/sequential/dense_3/Tensordot/Shape", "StatefulPartitionedCall/pip_line_explode_model/time_series_transformer/transformer_decoder_layer/sequential/dense_3/Tensordot/axes", "StatefulPartitionedCall/pip_line_explode_model/time_series_transformer/transformer_decoder_layer/sequential/dense_3/Tensordot/GatherV2_1/axis"], "attr": {"Taxis": {"type": "DT_INT32"}, "Tparams": {"type": "DT_INT32"}, "Tindices": {"type": "DT_INT32"}, "batch_dims": {"i": "0"}}}, {"name": "StatefulPartitionedCall/pip_line_explode_model/time_series_transformer/transformer_decoder_layer/sequential/dense_3/Tensordot/GatherV2", "op": "GatherV2", "input": ["StatefulPartitionedCall/pip_line_explode_model/time_series_transformer/transformer_decoder_layer/sequential/dense_3/Tensordot/Shape", "StatefulPartitionedCall/pip_line_explode_model/time_series_transformer/transformer_decoder_layer/sequential/dense_3/Tensordot/free", "StatefulPartitionedCall/pip_line_explode_model/time_series_transformer/transformer_decoder_layer/sequential/dense_3/Tensordot/GatherV2/axis"], "attr": {"Tparams": {"type": "DT_INT32"}, "Taxis": {"type": "DT_INT32"}, "Tindices": {"type": "DT_INT32"}, "batch_dims": {"i": "0"}}}, {"name": "StatefulPartitionedCall/pip_line_explode_model/time_series_transformer/transformer_decoder_layer/sequential/dense_3/Tensordot/Prod_1", "op": "Prod", "input": ["StatefulPartitionedCall/pip_line_explode_model/time_series_transformer/transformer_decoder_layer/sequential/dense_3/Tensordot/GatherV2_1", "StatefulPartitionedCall/pip_line_explode_model/time_series_transformer/transformer_decoder_layer/sequential/dense_3/Tensordot/Const_1"], "attr": {"T": {"type": "DT_INT32"}, "Tidx": {"type": "DT_INT32"}, "keep_dims": {"b": false}}}, {"name": "StatefulPartitionedCall/pip_line_explode_model/time_series_transformer/transformer_decoder_layer/sequential/dense_3/Tensordot/Prod", "op": "Prod", "input": ["StatefulPartitionedCall/pip_line_explode_model/time_series_transformer/transformer_decoder_layer/sequential/dense_3/Tensordot/GatherV2", "StatefulPartitionedCall/pip_line_explode_model/time_series_transformer/transformer_decoder_layer/sequential/dense_3/Tensordot/Const"], "attr": {"T": {"type": "DT_INT32"}, "Tidx": {"type": "DT_INT32"}, "keep_dims": {"b": false}}}, {"name": "StatefulPartitionedCall/pip_line_explode_model/time_series_transformer/transformer_decoder_layer/sequential/dense_3/Tensordot/concat_1", "op": "ConcatV2", "input": ["StatefulPartitionedCall/pip_line_explode_model/time_series_transformer/transformer_decoder_layer/sequential/dense_3/Tensordot/GatherV2", "StatefulPartitionedCall/pip_line_explode_model/time_series_transformer/transformer_decoder_layer/sequential/dense_3/Tensordot/Const_2", "StatefulPartitionedCall/pip_line_explode_model/time_series_transformer/transformer_decoder_layer/sequential/dense_3/Tensordot/concat_1/axis"], "attr": {"N": {"i": "2"}, "Tidx": {"type": "DT_INT32"}, "T": {"type": "DT_INT32"}}}, {"name": "StatefulPartitionedCall/pip_line_explode_model/time_series_transformer/transformer_decoder_layer/sequential/dense_3/Tensordot/stack", "op": "Pack", "input": ["StatefulPartitionedCall/pip_line_explode_model/time_series_transformer/transformer_decoder_layer/sequential/dense_3/Tensordot/Prod", "StatefulPartitionedCall/pip_line_explode_model/time_series_transformer/transformer_decoder_layer/sequential/dense_3/Tensordot/Prod_1"], "attr": {"N": {"i": "2"}, "axis": {"i": "0"}, "T": {"type": "DT_INT32"}}}, {"name": "StatefulPartitionedCall/pip_line_explode_model/time_series_transformer/transformer_decoder_layer/sequential/dense_3/Tensordot/Reshape", "op": "Reshape", "input": ["StatefulPartitionedCall/pip_line_explode_model/time_series_transformer/transformer_decoder_layer/sequential/dense_2/Relu", "StatefulPartitionedCall/pip_line_explode_model/time_series_transformer/transformer_decoder_layer/sequential/dense_3/Tensordot/stack"], "attr": {"T": {"type": "DT_FLOAT"}, "Tshape": {"type": "DT_INT32"}}}, {"name": "StatefulPartitionedCall/pip_line_explode_model/time_series_transformer/transformer_decoder_layer/sequential/dense_3/Tensordot/MatMul", "op": "MatMul", "input": ["StatefulPartitionedCall/pip_line_explode_model/time_series_transformer/transformer_decoder_layer/sequential/dense_3/Tensordot/Reshape", "StatefulPartitionedCall/pip_line_explode_model/time_series_transformer/transformer_decoder_layer/sequential/dense_3/Tensordot/ReadVariableOp"], "device": "/device:CPU:0", "attr": {"transpose_a": {"b": false}, "T": {"type": "DT_FLOAT"}, "transpose_b": {"b": false}}}, {"name": "StatefulPartitionedCall/pip_line_explode_model/time_series_transformer/transformer_decoder_layer/sequential/dense_3/Tensordot", "op": "Reshape", "input": ["StatefulPartitionedCall/pip_line_explode_model/time_series_transformer/transformer_decoder_layer/sequential/dense_3/Tensordot/MatMul", "StatefulPartitionedCall/pip_line_explode_model/time_series_transformer/transformer_decoder_layer/sequential/dense_3/Tensordot/concat_1"], "attr": {"T": {"type": "DT_FLOAT"}, "Tshape": {"type": "DT_INT32"}}}, {"name": "StatefulPartitionedCall/pip_line_explode_model/time_series_transformer/transformer_decoder_layer/sequential/dense_3/BiasAdd", "op": "BiasAdd", "input": ["StatefulPartitionedCall/pip_line_explode_model/time_series_transformer/transformer_decoder_layer/sequential/dense_3/Tensordot", "StatefulPartitionedCall/pip_line_explode_model/time_series_transformer/transformer_decoder_layer/sequential/dense_3/BiasAdd/ReadVariableOp"], "attr": {"data_format": {"s": "TkhXQw=="}, "T": {"type": "DT_FLOAT"}}}, {"name": "StatefulPartitionedCall/pip_line_explode_model/time_series_transformer/transformer_decoder_layer/add_2", "op": "AddV2", "input": ["StatefulPartitionedCall/pip_line_explode_model/time_series_transformer/transformer_decoder_layer/layer_normalization_1/batchnorm/add_1", "StatefulPartitionedCall/pip_line_explode_model/time_series_transformer/transformer_decoder_layer/sequential/dense_3/BiasAdd"], "attr": {"T": {"type": "DT_FLOAT"}}}, {"name": "StatefulPartitionedCall/pip_line_explode_model/time_series_transformer/transformer_decoder_layer/layer_normalization_2/moments/mean", "op": "Mean", "input": ["StatefulPartitionedCall/pip_line_explode_model/time_series_transformer/transformer_decoder_layer/add_2", "StatefulPartitionedCall/pip_line_explode_model/time_series_transformer/transformer_decoder_layer/layer_normalization_2/moments/mean/reduction_indices"], "attr": {"T": {"type": "DT_FLOAT"}, "Tidx": {"type": "DT_INT32"}, "keep_dims": {"b": true}}}, {"name": "StatefulPartitionedCall/pip_line_explode_model/time_series_transformer/transformer_decoder_layer/layer_normalization_2/moments/SquaredDifference", "op": "SquaredDifference", "input": ["StatefulPartitionedCall/pip_line_explode_model/time_series_transformer/transformer_decoder_layer/add_2", "StatefulPartitionedCall/pip_line_explode_model/time_series_transformer/transformer_decoder_layer/layer_normalization_2/moments/mean"], "attr": {"T": {"type": "DT_FLOAT"}}}, {"name": "StatefulPartitionedCall/pip_line_explode_model/time_series_transformer/transformer_decoder_layer/layer_normalization_2/moments/variance", "op": "Mean", "input": ["StatefulPartitionedCall/pip_line_explode_model/time_series_transformer/transformer_decoder_layer/layer_normalization_2/moments/SquaredDifference", "StatefulPartitionedCall/pip_line_explode_model/time_series_transformer/transformer_decoder_layer/layer_normalization_2/moments/variance/reduction_indices"], "attr": {"Tidx": {"type": "DT_INT32"}, "T": {"type": "DT_FLOAT"}, "keep_dims": {"b": true}}}, {"name": "StatefulPartitionedCall/pip_line_explode_model/time_series_transformer/transformer_decoder_layer/layer_normalization_2/batchnorm/add", "op": "AddV2", "input": ["StatefulPartitionedCall/pip_line_explode_model/time_series_transformer/transformer_decoder_layer/layer_normalization_2/moments/variance", "StatefulPartitionedCall/pip_line_explode_model/time_series_transformer/transformer_decoder_layer/layer_normalization_2/batchnorm/add/y"], "attr": {"T": {"type": "DT_FLOAT"}}}, {"name": "StatefulPartitionedCall/pip_line_explode_model/time_series_transformer/transformer_decoder_layer/layer_normalization_2/batchnorm/Rsqrt", "op": "Rsqrt", "input": ["StatefulPartitionedCall/pip_line_explode_model/time_series_transformer/transformer_decoder_layer/layer_normalization_2/batchnorm/add"], "attr": {"T": {"type": "DT_FLOAT"}}}, {"name": "StatefulPartitionedCall/pip_line_explode_model/time_series_transformer/transformer_decoder_layer/layer_normalization_2/batchnorm/mul", "op": "Mul", "input": ["StatefulPartitionedCall/pip_line_explode_model/time_series_transformer/transformer_decoder_layer/layer_normalization_2/batchnorm/Rsqrt", "StatefulPartitionedCall/pip_line_explode_model/time_series_transformer/transformer_decoder_layer/layer_normalization_2/batchnorm/mul/ReadVariableOp"], "attr": {"T": {"type": "DT_FLOAT"}}}, {"name": "StatefulPartitionedCall/pip_line_explode_model/time_series_transformer/transformer_decoder_layer/layer_normalization_2/batchnorm/mul_2", "op": "Mul", "input": ["StatefulPartitionedCall/pip_line_explode_model/time_series_transformer/transformer_decoder_layer/layer_normalization_2/moments/mean", "StatefulPartitionedCall/pip_line_explode_model/time_series_transformer/transformer_decoder_layer/layer_normalization_2/batchnorm/mul"], "attr": {"T": {"type": "DT_FLOAT"}}}, {"name": "StatefulPartitionedCall/pip_line_explode_model/time_series_transformer/transformer_decoder_layer/layer_normalization_2/batchnorm/mul_1", "op": "Mul", "input": ["StatefulPartitionedCall/pip_line_explode_model/time_series_transformer/transformer_decoder_layer/add_2", "StatefulPartitionedCall/pip_line_explode_model/time_series_transformer/transformer_decoder_layer/layer_normalization_2/batchnorm/mul"], "attr": {"T": {"type": "DT_FLOAT"}}}, {"name": "StatefulPartitionedCall/pip_line_explode_model/time_series_transformer/transformer_decoder_layer/layer_normalization_2/batchnorm/sub", "op": "Sub", "input": ["StatefulPartitionedCall/pip_line_explode_model/time_series_transformer/transformer_decoder_layer/layer_normalization_2/batchnorm/ReadVariableOp", "StatefulPartitionedCall/pip_line_explode_model/time_series_transformer/transformer_decoder_layer/layer_normalization_2/batchnorm/mul_2"], "attr": {"T": {"type": "DT_FLOAT"}}}, {"name": "StatefulPartitionedCall/pip_line_explode_model/time_series_transformer/transformer_decoder_layer/layer_normalization_2/batchnorm/add_1", "op": "AddV2", "input": ["StatefulPartitionedCall/pip_line_explode_model/time_series_transformer/transformer_decoder_layer/layer_normalization_2/batchnorm/mul_1", "StatefulPartitionedCall/pip_line_explode_model/time_series_transformer/transformer_decoder_layer/layer_normalization_2/batchnorm/sub"], "attr": {"T": {"type": "DT_FLOAT"}}}, {"name": "StatefulPartitionedCall/pip_line_explode_model/time_series_transformer/transformer_decoder_layer_1/multi_head_attention_3/key/einsum/Einsum", "op": "Einsum", "input": ["StatefulPartitionedCall/pip_line_explode_model/time_series_transformer/transformer_decoder_layer/layer_normalization_2/batchnorm/add_1", "StatefulPartitionedCall/pip_line_explode_model/time_series_transformer/transformer_decoder_layer_1/multi_head_attention_3/key/einsum/Einsum/ReadVariableOp"], "attr": {"N": {"i": "2"}, "equation": {"s": "YWJjLGNkZS0+YWJkZQ=="}, "T": {"type": "DT_FLOAT"}}}, {"name": "StatefulPartitionedCall/pip_line_explode_model/time_series_transformer/transformer_decoder_layer_1/multi_head_attention_2/key/einsum/Einsum", "op": "Einsum", "input": ["StatefulPartitionedCall/pip_line_explode_model/time_series_transformer/transformer_decoder_layer/layer_normalization_2/batchnorm/add_1", "StatefulPartitionedCall/pip_line_explode_model/time_series_transformer/transformer_decoder_layer_1/multi_head_attention_2/key/einsum/Einsum/ReadVariableOp"], "attr": {"equation": {"s": "YWJjLGNkZS0+YWJkZQ=="}, "N": {"i": "2"}, "T": {"type": "DT_FLOAT"}}}, {"name": "StatefulPartitionedCall/pip_line_explode_model/time_series_transformer/transformer_decoder_layer_1/multi_head_attention_2/query/einsum/Einsum", "op": "Einsum", "input": ["StatefulPartitionedCall/pip_line_explode_model/time_series_transformer/transformer_decoder_layer/layer_normalization_2/batchnorm/add_1", "StatefulPartitionedCall/pip_line_explode_model/time_series_transformer/transformer_decoder_layer_1/multi_head_attention_2/query/einsum/Einsum/ReadVariableOp"], "attr": {"equation": {"s": "YWJjLGNkZS0+YWJkZQ=="}, "N": {"i": "2"}, "T": {"type": "DT_FLOAT"}}}, {"name": "StatefulPartitionedCall/pip_line_explode_model/time_series_transformer/transformer_decoder_layer_1/multi_head_attention_2/value/einsum/Einsum", "op": "Einsum", "input": ["StatefulPartitionedCall/pip_line_explode_model/time_series_transformer/transformer_decoder_layer/layer_normalization_2/batchnorm/add_1", "StatefulPartitionedCall/pip_line_explode_model/time_series_transformer/transformer_decoder_layer_1/multi_head_attention_2/value/einsum/Einsum/ReadVariableOp"], "attr": {"N": {"i": "2"}, "equation": {"s": "YWJjLGNkZS0+YWJkZQ=="}, "T": {"type": "DT_FLOAT"}}}, {"name": "StatefulPartitionedCall/pip_line_explode_model/time_series_transformer/transformer_decoder_layer_1/multi_head_attention_3/value/einsum/Einsum", "op": "Einsum", "input": ["StatefulPartitionedCall/pip_line_explode_model/time_series_transformer/transformer_decoder_layer/layer_normalization_2/batchnorm/add_1", "StatefulPartitionedCall/pip_line_explode_model/time_series_transformer/transformer_decoder_layer_1/multi_head_attention_3/value/einsum/Einsum/ReadVariableOp"], "attr": {"N": {"i": "2"}, "equation": {"s": "YWJjLGNkZS0+YWJkZQ=="}, "T": {"type": "DT_FLOAT"}}}, {"name": "StatefulPartitionedCall/pip_line_explode_model/time_series_transformer/transformer_decoder_layer_1/multi_head_attention_3/key/add", "op": "AddV2", "input": ["StatefulPartitionedCall/pip_line_explode_model/time_series_transformer/transformer_decoder_layer_1/multi_head_attention_3/key/einsum/Einsum", "StatefulPartitionedCall/pip_line_explode_model/time_series_transformer/transformer_decoder_layer_1/multi_head_attention_3/key/add/ReadVariableOp"], "attr": {"T": {"type": "DT_FLOAT"}}}, {"name": "StatefulPartitionedCall/pip_line_explode_model/time_series_transformer/transformer_decoder_layer_1/multi_head_attention_2/key/add", "op": "AddV2", "input": ["StatefulPartitionedCall/pip_line_explode_model/time_series_transformer/transformer_decoder_layer_1/multi_head_attention_2/key/einsum/Einsum", "StatefulPartitionedCall/pip_line_explode_model/time_series_transformer/transformer_decoder_layer_1/multi_head_attention_2/key/add/ReadVariableOp"], "attr": {"T": {"type": "DT_FLOAT"}}}, {"name": "StatefulPartitionedCall/pip_line_explode_model/time_series_transformer/transformer_decoder_layer_1/multi_head_attention_2/query/add", "op": "AddV2", "input": ["StatefulPartitionedCall/pip_line_explode_model/time_series_transformer/transformer_decoder_layer_1/multi_head_attention_2/query/einsum/Einsum", "StatefulPartitionedCall/pip_line_explode_model/time_series_transformer/transformer_decoder_layer_1/multi_head_attention_2/query/add/ReadVariableOp"], "attr": {"T": {"type": "DT_FLOAT"}}}, {"name": "StatefulPartitionedCall/pip_line_explode_model/time_series_transformer/transformer_decoder_layer_1/multi_head_attention_2/value/add", "op": "AddV2", "input": ["StatefulPartitionedCall/pip_line_explode_model/time_series_transformer/transformer_decoder_layer_1/multi_head_attention_2/value/einsum/Einsum", "StatefulPartitionedCall/pip_line_explode_model/time_series_transformer/transformer_decoder_layer_1/multi_head_attention_2/value/add/ReadVariableOp"], "attr": {"T": {"type": "DT_FLOAT"}}}, {"name": "StatefulPartitionedCall/pip_line_explode_model/time_series_transformer/transformer_decoder_layer_1/multi_head_attention_3/value/add", "op": "AddV2", "input": ["StatefulPartitionedCall/pip_line_explode_model/time_series_transformer/transformer_decoder_layer_1/multi_head_attention_3/value/einsum/Einsum", "StatefulPartitionedCall/pip_line_explode_model/time_series_transformer/transformer_decoder_layer_1/multi_head_attention_3/value/add/ReadVariableOp"], "attr": {"T": {"type": "DT_FLOAT"}}}, {"name": "StatefulPartitionedCall/pip_line_explode_model/time_series_transformer/transformer_decoder_layer_1/multi_head_attention_2/Mul", "op": "Mul", "input": ["StatefulPartitionedCall/pip_line_explode_model/time_series_transformer/transformer_decoder_layer_1/multi_head_attention_2/query/add", "StatefulPartitionedCall/pip_line_explode_model/time_series_transformer/transformer_decoder_layer_1/multi_head_attention_2/Mul/y"], "attr": {"T": {"type": "DT_FLOAT"}}}, {"name": "StatefulPartitionedCall/pip_line_explode_model/time_series_transformer/transformer_decoder_layer_1/multi_head_attention_2/einsum/Einsum", "op": "Einsum", "input": ["StatefulPartitionedCall/pip_line_explode_model/time_series_transformer/transformer_decoder_layer_1/multi_head_attention_2/key/add", "StatefulPartitionedCall/pip_line_explode_model/time_series_transformer/transformer_decoder_layer_1/multi_head_attention_2/Mul"], "attr": {"N": {"i": "2"}, "equation": {"s": "YWVjZCxhYmNkLT5hY2Jl"}, "T": {"type": "DT_FLOAT"}}}, {"name": "StatefulPartitionedCall/pip_line_explode_model/time_series_transformer/transformer_decoder_layer_1/multi_head_attention_2/softmax_2/add", "op": "AddV2", "input": ["StatefulPartitionedCall/pip_line_explode_model/time_series_transformer/transformer_decoder_layer_1/multi_head_attention_2/einsum/Einsum", "StatefulPartitionedCall/pip_line_explode_model/time_series_transformer/transformer_decoder_layer_1/multi_head_attention_2/softmax_2/mul"], "attr": {"T": {"type": "DT_FLOAT"}}}, {"name": "StatefulPartitionedCall/pip_line_explode_model/time_series_transformer/transformer_decoder_layer_1/multi_head_attention_2/softmax_2/Softmax", "op": "Softmax", "input": ["StatefulPartitionedCall/pip_line_explode_model/time_series_transformer/transformer_decoder_layer_1/multi_head_attention_2/softmax_2/add"], "attr": {"T": {"type": "DT_FLOAT"}}}, {"name": "StatefulPartitionedCall/pip_line_explode_model/time_series_transformer/transformer_decoder_layer_1/multi_head_attention_2/einsum_1/Einsum", "op": "Einsum", "input": ["StatefulPartitionedCall/pip_line_explode_model/time_series_transformer/transformer_decoder_layer_1/multi_head_attention_2/softmax_2/Softmax", "StatefulPartitionedCall/pip_line_explode_model/time_series_transformer/transformer_decoder_layer_1/multi_head_attention_2/value/add"], "attr": {"equation": {"s": "YWNiZSxhZWNkLT5hYmNk"}, "N": {"i": "2"}, "T": {"type": "DT_FLOAT"}}}, {"name": "StatefulPartitionedCall/pip_line_explode_model/time_series_transformer/transformer_decoder_layer_1/multi_head_attention_2/attention_output/einsum/Einsum", "op": "Einsum", "input": ["StatefulPartitionedCall/pip_line_explode_model/time_series_transformer/transformer_decoder_layer_1/multi_head_attention_2/einsum_1/Einsum", "StatefulPartitionedCall/pip_line_explode_model/time_series_transformer/transformer_decoder_layer_1/multi_head_attention_2/attention_output/einsum/Einsum/ReadVariableOp"], "attr": {"N": {"i": "2"}, "equation": {"s": "YWJjZCxjZGUtPmFiZQ=="}, "T": {"type": "DT_FLOAT"}}}, {"name": "StatefulPartitionedCall/pip_line_explode_model/time_series_transformer/transformer_decoder_layer_1/ArithmeticOptimizer/AddOpsRewrite_Leaf_1_add", "op": "AddN", "input": ["StatefulPartitionedCall/pip_line_explode_model/time_series_transformer/transformer_decoder_layer/layer_normalization_2/batchnorm/add_1", "StatefulPartitionedCall/pip_line_explode_model/time_series_transformer/transformer_decoder_layer_1/multi_head_attention_2/attention_output/einsum/Einsum"], "attr": {"N": {"i": "2"}, "T": {"type": "DT_FLOAT"}, "_grappler_ArithmeticOptimizer_AddOpsRewriteStage": {"b": true}}}, {"name": "StatefulPartitionedCall/pip_line_explode_model/time_series_transformer/transformer_decoder_layer_1/ArithmeticOptimizer/AddOpsRewrite_add", "op": "AddV2", "input": ["StatefulPartitionedCall/pip_line_explode_model/time_series_transformer/transformer_decoder_layer_1/multi_head_attention_2/attention_output/add/ReadVariableOp", "StatefulPartitionedCall/pip_line_explode_model/time_series_transformer/transformer_decoder_layer_1/ArithmeticOptimizer/AddOpsRewrite_Leaf_1_add"], "attr": {"T": {"type": "DT_FLOAT"}, "_grappler_ArithmeticOptimizer_AddOpsRewriteStage": {"b": true}}}, {"name": "StatefulPartitionedCall/pip_line_explode_model/time_series_transformer/transformer_decoder_layer_1/layer_normalization_3/moments/mean", "op": "Mean", "input": ["StatefulPartitionedCall/pip_line_explode_model/time_series_transformer/transformer_decoder_layer_1/ArithmeticOptimizer/AddOpsRewrite_add", "StatefulPartitionedCall/pip_line_explode_model/time_series_transformer/transformer_decoder_layer_1/layer_normalization_3/moments/mean/reduction_indices"], "attr": {"T": {"type": "DT_FLOAT"}, "Tidx": {"type": "DT_INT32"}, "keep_dims": {"b": true}}}, {"name": "StatefulPartitionedCall/pip_line_explode_model/time_series_transformer/transformer_decoder_layer_1/layer_normalization_3/moments/SquaredDifference", "op": "SquaredDifference", "input": ["StatefulPartitionedCall/pip_line_explode_model/time_series_transformer/transformer_decoder_layer_1/ArithmeticOptimizer/AddOpsRewrite_add", "StatefulPartitionedCall/pip_line_explode_model/time_series_transformer/transformer_decoder_layer_1/layer_normalization_3/moments/mean"], "attr": {"T": {"type": "DT_FLOAT"}}}, {"name": "StatefulPartitionedCall/pip_line_explode_model/time_series_transformer/transformer_decoder_layer_1/layer_normalization_3/moments/variance", "op": "Mean", "input": ["StatefulPartitionedCall/pip_line_explode_model/time_series_transformer/transformer_decoder_layer_1/layer_normalization_3/moments/SquaredDifference", "StatefulPartitionedCall/pip_line_explode_model/time_series_transformer/transformer_decoder_layer_1/layer_normalization_3/moments/variance/reduction_indices"], "attr": {"Tidx": {"type": "DT_INT32"}, "T": {"type": "DT_FLOAT"}, "keep_dims": {"b": true}}}, {"name": "StatefulPartitionedCall/pip_line_explode_model/time_series_transformer/transformer_decoder_layer_1/layer_normalization_3/batchnorm/add", "op": "AddV2", "input": ["StatefulPartitionedCall/pip_line_explode_model/time_series_transformer/transformer_decoder_layer_1/layer_normalization_3/moments/variance", "StatefulPartitionedCall/pip_line_explode_model/time_series_transformer/transformer_decoder_layer_1/layer_normalization_3/batchnorm/add/y"], "attr": {"T": {"type": "DT_FLOAT"}}}, {"name": "StatefulPartitionedCall/pip_line_explode_model/time_series_transformer/transformer_decoder_layer_1/layer_normalization_3/batchnorm/Rsqrt", "op": "Rsqrt", "input": ["StatefulPartitionedCall/pip_line_explode_model/time_series_transformer/transformer_decoder_layer_1/layer_normalization_3/batchnorm/add"], "attr": {"T": {"type": "DT_FLOAT"}}}, {"name": "StatefulPartitionedCall/pip_line_explode_model/time_series_transformer/transformer_decoder_layer_1/layer_normalization_3/batchnorm/mul", "op": "Mul", "input": ["StatefulPartitionedCall/pip_line_explode_model/time_series_transformer/transformer_decoder_layer_1/layer_normalization_3/batchnorm/Rsqrt", "StatefulPartitionedCall/pip_line_explode_model/time_series_transformer/transformer_decoder_layer_1/layer_normalization_3/batchnorm/mul/ReadVariableOp"], "attr": {"T": {"type": "DT_FLOAT"}}}, {"name": "StatefulPartitionedCall/pip_line_explode_model/time_series_transformer/transformer_decoder_layer_1/layer_normalization_3/batchnorm/mul_2", "op": "Mul", "input": ["StatefulPartitionedCall/pip_line_explode_model/time_series_transformer/transformer_decoder_layer_1/layer_normalization_3/moments/mean", "StatefulPartitionedCall/pip_line_explode_model/time_series_transformer/transformer_decoder_layer_1/layer_normalization_3/batchnorm/mul"], "attr": {"T": {"type": "DT_FLOAT"}}}, {"name": "StatefulPartitionedCall/pip_line_explode_model/time_series_transformer/transformer_decoder_layer_1/layer_normalization_3/batchnorm/mul_1", "op": "Mul", "input": ["StatefulPartitionedCall/pip_line_explode_model/time_series_transformer/transformer_decoder_layer_1/ArithmeticOptimizer/AddOpsRewrite_add", "StatefulPartitionedCall/pip_line_explode_model/time_series_transformer/transformer_decoder_layer_1/layer_normalization_3/batchnorm/mul"], "attr": {"T": {"type": "DT_FLOAT"}}}, {"name": "StatefulPartitionedCall/pip_line_explode_model/time_series_transformer/transformer_decoder_layer_1/layer_normalization_3/batchnorm/sub", "op": "Sub", "input": ["StatefulPartitionedCall/pip_line_explode_model/time_series_transformer/transformer_decoder_layer_1/layer_normalization_3/batchnorm/ReadVariableOp", "StatefulPartitionedCall/pip_line_explode_model/time_series_transformer/transformer_decoder_layer_1/layer_normalization_3/batchnorm/mul_2"], "attr": {"T": {"type": "DT_FLOAT"}}}, {"name": "StatefulPartitionedCall/pip_line_explode_model/time_series_transformer/transformer_decoder_layer_1/layer_normalization_3/batchnorm/add_1", "op": "AddV2", "input": ["StatefulPartitionedCall/pip_line_explode_model/time_series_transformer/transformer_decoder_layer_1/layer_normalization_3/batchnorm/mul_1", "StatefulPartitionedCall/pip_line_explode_model/time_series_transformer/transformer_decoder_layer_1/layer_normalization_3/batchnorm/sub"], "attr": {"T": {"type": "DT_FLOAT"}}}, {"name": "StatefulPartitionedCall/pip_line_explode_model/time_series_transformer/transformer_decoder_layer_1/multi_head_attention_3/query/einsum/Einsum", "op": "Einsum", "input": ["StatefulPartitionedCall/pip_line_explode_model/time_series_transformer/transformer_decoder_layer_1/layer_normalization_3/batchnorm/add_1", "StatefulPartitionedCall/pip_line_explode_model/time_series_transformer/transformer_decoder_layer_1/multi_head_attention_3/query/einsum/Einsum/ReadVariableOp"], "attr": {"equation": {"s": "YWJjLGNkZS0+YWJkZQ=="}, "N": {"i": "2"}, "T": {"type": "DT_FLOAT"}}}, {"name": "StatefulPartitionedCall/pip_line_explode_model/time_series_transformer/transformer_decoder_layer_1/multi_head_attention_3/query/add", "op": "AddV2", "input": ["StatefulPartitionedCall/pip_line_explode_model/time_series_transformer/transformer_decoder_layer_1/multi_head_attention_3/query/einsum/Einsum", "StatefulPartitionedCall/pip_line_explode_model/time_series_transformer/transformer_decoder_layer_1/multi_head_attention_3/query/add/ReadVariableOp"], "attr": {"T": {"type": "DT_FLOAT"}}}, {"name": "StatefulPartitionedCall/pip_line_explode_model/time_series_transformer/transformer_decoder_layer_1/multi_head_attention_3/Mul", "op": "Mul", "input": ["StatefulPartitionedCall/pip_line_explode_model/time_series_transformer/transformer_decoder_layer_1/multi_head_attention_3/query/add", "StatefulPartitionedCall/pip_line_explode_model/time_series_transformer/transformer_decoder_layer_1/multi_head_attention_3/Mul/y"], "attr": {"T": {"type": "DT_FLOAT"}}}, {"name": "StatefulPartitionedCall/pip_line_explode_model/time_series_transformer/transformer_decoder_layer_1/multi_head_attention_3/einsum/Einsum", "op": "Einsum", "input": ["StatefulPartitionedCall/pip_line_explode_model/time_series_transformer/transformer_decoder_layer_1/multi_head_attention_3/key/add", "StatefulPartitionedCall/pip_line_explode_model/time_series_transformer/transformer_decoder_layer_1/multi_head_attention_3/Mul"], "attr": {"N": {"i": "2"}, "equation": {"s": "YWVjZCxhYmNkLT5hY2Jl"}, "T": {"type": "DT_FLOAT"}}}, {"name": "StatefulPartitionedCall/pip_line_explode_model/time_series_transformer/transformer_decoder_layer_1/multi_head_attention_3/softmax_3/Softmax", "op": "Softmax", "input": ["StatefulPartitionedCall/pip_line_explode_model/time_series_transformer/transformer_decoder_layer_1/multi_head_attention_3/einsum/Einsum"], "attr": {"T": {"type": "DT_FLOAT"}}}, {"name": "StatefulPartitionedCall/pip_line_explode_model/time_series_transformer/transformer_decoder_layer_1/multi_head_attention_3/einsum_1/Einsum", "op": "Einsum", "input": ["StatefulPartitionedCall/pip_line_explode_model/time_series_transformer/transformer_decoder_layer_1/multi_head_attention_3/softmax_3/Softmax", "StatefulPartitionedCall/pip_line_explode_model/time_series_transformer/transformer_decoder_layer_1/multi_head_attention_3/value/add"], "attr": {"N": {"i": "2"}, "equation": {"s": "YWNiZSxhZWNkLT5hYmNk"}, "T": {"type": "DT_FLOAT"}}}, {"name": "StatefulPartitionedCall/pip_line_explode_model/time_series_transformer/transformer_decoder_layer_1/multi_head_attention_3/attention_output/einsum/Einsum", "op": "Einsum", "input": ["StatefulPartitionedCall/pip_line_explode_model/time_series_transformer/transformer_decoder_layer_1/multi_head_attention_3/einsum_1/Einsum", "StatefulPartitionedCall/pip_line_explode_model/time_series_transformer/transformer_decoder_layer_1/multi_head_attention_3/attention_output/einsum/Einsum/ReadVariableOp"], "attr": {"N": {"i": "2"}, "equation": {"s": "YWJjZCxjZGUtPmFiZQ=="}, "T": {"type": "DT_FLOAT"}}}, {"name": "StatefulPartitionedCall/pip_line_explode_model/time_series_transformer/transformer_decoder_layer_1/ArithmeticOptimizer/AddOpsRewrite_Leaf_1_add_1", "op": "AddN", "input": ["StatefulPartitionedCall/pip_line_explode_model/time_series_transformer/transformer_decoder_layer_1/layer_normalization_3/batchnorm/add_1", "StatefulPartitionedCall/pip_line_explode_model/time_series_transformer/transformer_decoder_layer_1/multi_head_attention_3/attention_output/einsum/Einsum"], "attr": {"N": {"i": "2"}, "T": {"type": "DT_FLOAT"}, "_grappler_ArithmeticOptimizer_AddOpsRewriteStage": {"b": true}}}, {"name": "StatefulPartitionedCall/pip_line_explode_model/time_series_transformer/transformer_decoder_layer_1/ArithmeticOptimizer/AddOpsRewrite_add_1", "op": "AddV2", "input": ["StatefulPartitionedCall/pip_line_explode_model/time_series_transformer/transformer_decoder_layer_1/multi_head_attention_3/attention_output/add/ReadVariableOp", "StatefulPartitionedCall/pip_line_explode_model/time_series_transformer/transformer_decoder_layer_1/ArithmeticOptimizer/AddOpsRewrite_Leaf_1_add_1"], "attr": {"T": {"type": "DT_FLOAT"}, "_grappler_ArithmeticOptimizer_AddOpsRewriteStage": {"b": true}}}, {"name": "StatefulPartitionedCall/pip_line_explode_model/time_series_transformer/transformer_decoder_layer_1/layer_normalization_4/moments/mean", "op": "Mean", "input": ["StatefulPartitionedCall/pip_line_explode_model/time_series_transformer/transformer_decoder_layer_1/ArithmeticOptimizer/AddOpsRewrite_add_1", "StatefulPartitionedCall/pip_line_explode_model/time_series_transformer/transformer_decoder_layer_1/layer_normalization_4/moments/mean/reduction_indices"], "attr": {"Tidx": {"type": "DT_INT32"}, "T": {"type": "DT_FLOAT"}, "keep_dims": {"b": true}}}, {"name": "StatefulPartitionedCall/pip_line_explode_model/time_series_transformer/transformer_decoder_layer_1/layer_normalization_4/moments/SquaredDifference", "op": "SquaredDifference", "input": ["StatefulPartitionedCall/pip_line_explode_model/time_series_transformer/transformer_decoder_layer_1/ArithmeticOptimizer/AddOpsRewrite_add_1", "StatefulPartitionedCall/pip_line_explode_model/time_series_transformer/transformer_decoder_layer_1/layer_normalization_4/moments/mean"], "attr": {"T": {"type": "DT_FLOAT"}}}, {"name": "StatefulPartitionedCall/pip_line_explode_model/time_series_transformer/transformer_decoder_layer_1/layer_normalization_4/moments/variance", "op": "Mean", "input": ["StatefulPartitionedCall/pip_line_explode_model/time_series_transformer/transformer_decoder_layer_1/layer_normalization_4/moments/SquaredDifference", "StatefulPartitionedCall/pip_line_explode_model/time_series_transformer/transformer_decoder_layer_1/layer_normalization_4/moments/variance/reduction_indices"], "attr": {"T": {"type": "DT_FLOAT"}, "Tidx": {"type": "DT_INT32"}, "keep_dims": {"b": true}}}, {"name": "StatefulPartitionedCall/pip_line_explode_model/time_series_transformer/transformer_decoder_layer_1/layer_normalization_4/batchnorm/add", "op": "AddV2", "input": ["StatefulPartitionedCall/pip_line_explode_model/time_series_transformer/transformer_decoder_layer_1/layer_normalization_4/moments/variance", "StatefulPartitionedCall/pip_line_explode_model/time_series_transformer/transformer_decoder_layer_1/layer_normalization_4/batchnorm/add/y"], "attr": {"T": {"type": "DT_FLOAT"}}}, {"name": "StatefulPartitionedCall/pip_line_explode_model/time_series_transformer/transformer_decoder_layer_1/layer_normalization_4/batchnorm/Rsqrt", "op": "Rsqrt"…
artitionedCall/pip_line_explode_model/dense_11/Tensordot/GatherV2", "StatefulPartitionedCall/pip_line_explode_model/dense_11/Tensordot/Const_2", "StatefulPartitionedCall/pip_line_explode_model/dense_11/Tensordot/concat_1/axis"], "attr": {"N": {"i": "2"}, "T": {"type": "DT_INT32"}, "Tidx": {"type": "DT_INT32"}}}, {"name": "StatefulPartitionedCall/pip_line_explode_model/dense_11/Tensordot/stack", "op": "Pack", "input": ["StatefulPartitionedCall/pip_line_explode_model/dense_11/Tensordot/Prod", "StatefulPartitionedCall/pip_line_explode_model/dense_11/Tensordot/Prod_1"], "attr": {"N": {"i": "2"}, "axis": {"i": "0"}, "T": {"type": "DT_INT32"}}}, {"name": "StatefulPartitionedCall/pip_line_explode_model/dense_11/Tensordot/Reshape", "op": "Reshape", "input": ["StatefulPartitionedCall/pip_line_explode_model/time_series_transformer/dense_10/BiasAdd", "StatefulPartitionedCall/pip_line_explode_model/dense_11/Tensordot/stack"], "attr": {"T": {"type": "DT_FLOAT"}, "Tshape": {"type": "DT_INT32"}}}, {"name": "StatefulPartitionedCall/pip_line_explode_model/dense_11/Tensordot/MatMul", "op": "MatMul", "input": ["StatefulPartitionedCall/pip_line_explode_model/dense_11/Tensordot/Reshape", "StatefulPartitionedCall/pip_line_explode_model/dense_11/Tensordot/ReadVariableOp"], "device": "/device:CPU:0", "attr": {"transpose_a": {"b": false}, "T": {"type": "DT_FLOAT"}, "transpose_b": {"b": false}}}, {"name": "StatefulPartitionedCall/pip_line_explode_model/dense_11/Tensordot", "op": "Reshape", "input": ["StatefulPartitionedCall/pip_line_explode_model/dense_11/Tensordot/MatMul", "StatefulPartitionedCall/pip_line_explode_model/dense_11/Tensordot/concat_1"], "attr": {"T": {"type": "DT_FLOAT"}, "Tshape": {"type": "DT_INT32"}}}, {"name": "StatefulPartitionedCall/pip_line_explode_model/dense_11/BiasAdd", "op": "BiasAdd", "input": ["StatefulPartitionedCall/pip_line_explode_model/dense_11/Tensordot", "StatefulPartitionedCall/pip_line_explode_model/dense_11/BiasAdd/ReadVariableOp"], "attr": {"data_format": {"s": "TkhXQw=="}, "T": {"type": "DT_FLOAT"}}}, {"name": "Identity", "op": "Identity", "input": ["StatefulPartitionedCall/pip_line_explode_model/dense_11/BiasAdd"], "attr": {"T": {"type": "DT_FLOAT"}}}], "library": {}, "versions": {"producer": 1645}}, "weightsManifest": [{"paths": ["group1-shard1of4.bin", "group1-shard2of4.bin", "group1-shard3of4.bin", "group1-shard4of4.bin"], "weights": [{"name": "StatefulPartitionedCall/pip_line_explode_model/dense_11/Tensordot/Const", "shape": [1], "dtype": "int32"}, {"name": "StatefulPartitionedCall/pip_line_explode_model/dense_11/Tensordot/axes", "shape": [1], "dtype": "int32"}, {"name": "StatefulPartitionedCall/pip_line_explode_model/dense_11/Tensordot/GatherV2_1/axis", "shape": [], "dtype": "int32"}, {"name": "StatefulPartitionedCall/pip_line_explode_model/dense_11/Tensordot/Const_1", "shape": [1], "dtype": "int32"}, {"name": "StatefulPartitionedCall/pip_line_explode_model/dense_11/Tensordot/ReadVariableOp", "shape": [256, 9], "dtype": "float32"}, {"name": "StatefulPartitionedCall/pip_line_explode_model/time_series_transformer/dense_10/Tensordot/Const", "shape": [1], "dtype": "int32"}, {"name": "StatefulPartitionedCall/pip_line_explode_model/time_series_transformer/dense_10/Tensordot/axes", "shape": [1], "dtype": "int32"}, {"name": "StatefulPartitionedCall/pip_line_explode_model/time_series_transformer/dense_10/Tensordot/GatherV2_1/axis", "shape": [], "dtype": "int32"}, {"name": "StatefulPartitionedCall/pip_line_explode_model/time_series_transformer/dense_10/Tensordot/Const_1", "shape": [1], "dtype": "int32"}, {"name": "StatefulPartitionedCall/pip_line_explode_model/time_series_transformer/dense_10/Tensordot/ReadVariableOp", "shape": [256, 256], "dtype": "float32"}, {"name": "StatefulPartitionedCall/pip_line_explode_model/time_series_transformer/transformer_decoder_layer_3/layer_normalization_11/batchnorm/ReadVariableOp", "shape": [256], "dtype": "float32"}, {"name": "StatefulPartitionedCall/pip_line_explode_model/time_series_transformer/transformer_decoder_layer_3/sequential_3/dense_9/Tensordot/Const", "shape": [1], "dtype": "int32"}, {"name": "StatefulPartitionedCall/pip_line_explode_model/time_series_transformer/transformer_decoder_layer_3/sequential_3/dense_9/Tensordot/axes", "shape": [1], "dtype": "int32"}, {"name": "StatefulPartitionedCall/pip_line_explode_model/time_series_transformer/transformer_decoder_layer_3/sequential_3/dense_9/Tensordot/GatherV2_1/axis", "shape": [], "dtype": "int32"}, {"name": "StatefulPartitionedCall/pip_line_explode_model/time_series_transformer/transformer_decoder_layer_3/sequential_3/dense_9/Tensordot/Const_1", "shape": [1], "dtype": "int32"}, {"name": "StatefulPartitionedCall/pip_line_explode_model/time_series_transformer/transformer_decoder_layer_3/sequential_3/dense_9/Tensordot/ReadVariableOp", "shape": [512, 256], "dtype": "float32"}, {"name": "StatefulPartitionedCall/pip_line_explode_model/time_series_transformer/transformer_decoder_layer_3/sequential_3/dense_8/Tensordot/Const", "shape": [1], "dtype": "int32"}, {"name": "StatefulPartitionedCall/pip_line_explode_model/time_series_transformer/transformer_decoder_layer_3/sequential_3/dense_8/Tensordot/axes", "shape": [1], "dtype": "int32"}, {"name": "StatefulPartitionedCall/pip_line_explode_model/time_series_transformer/transformer_decoder_layer_3/sequential_3/dense_8/Tensordot/GatherV2_1/axis", "shape": [], "dtype": "int32"}, {"name": "StatefulPartitionedCall/pip_line_explode_model/time_series_transformer/transformer_decoder_layer_3/sequential_3/dense_8/Tensordot/Const_1", "shape": [1], "dtype": "int32"}, {"name": "StatefulPartitionedCall/pip_line_explode_model/time_series_transformer/transformer_decoder_layer_3/sequential_3/dense_8/Tensordot/ReadVariableOp", "shape": [256, 512], "dtype": "float32"}, {"name": "StatefulPartitionedCall/pip_line_explode_model/time_series_transformer/transformer_decoder_layer_3/layer_normalization_10/batchnorm/ReadVariableOp", "shape": [256], "dtype": "float32"}, {"name": "StatefulPartitionedCall/pip_line_explode_model/time_series_transformer/transformer_decoder_layer_3/multi_head_attention_7/attention_output/add/ReadVariableOp", "shape": [256], "dtype": "float32"}, {"name": "StatefulPartitionedCall/pip_line_explode_model/time_series_transformer/transformer_decoder_layer_3/multi_head_attention_7/key/einsum/Einsum/ReadVariableOp", "shape": [256, 8, 32], "dtype": "float32"}, {"name": "StatefulPartitionedCall/pip_line_explode_model/time_series_transformer/transformer_decoder_layer_3/multi_head_attention_7/key/add/ReadVariableOp", "shape": [8, 32], "dtype": "float32"}, {"name": "StatefulPartitionedCall/pip_line_explode_model/time_series_transformer/transformer_decoder_layer_3/layer_normalization_9/batchnorm/ReadVariableOp", "shape": [256], "dtype": "float32"}, {"name": "StatefulPartitionedCall/pip_line_explode_model/time_series_transformer/transformer_decoder_layer_3/multi_head_attention_6/attention_output/add/ReadVariableOp", "shape": [256], "dtype": "float32"}, {"name": "StatefulPartitionedCall/pip_line_explode_model/time_series_transformer/transformer_decoder_layer_3/multi_head_attention_6/key/einsum/Einsum/ReadVariableOp", "shape": [256, 8, 32], "dtype": "float32"}, {"name": "StatefulPartitionedCall/pip_line_explode_model/time_series_transformer/transformer_decoder_layer_3/multi_head_attention_6/key/add/ReadVariableOp", "shape": [8, 32], "dtype": "float32"}, {"name": "StatefulPartitionedCall/pip_line_explode_model/time_series_transformer/transformer_decoder_layer_3/multi_head_attention_6/query/einsum/Einsum/ReadVariableOp", "shape": [256, 8, 32], "dtype": "float32"}, {"name": "StatefulPartitionedCall/pip_line_explode_model/time_series_transformer/transformer_decoder_layer_3/multi_head_attention_6/query/add/ReadVariableOp", "shape": [8, 32], "dtype": "float32"}, {"name": "StatefulPartitionedCall/pip_line_explode_model/time_series_transformer/transformer_decoder_layer_3/multi_head_attention_6/Mul/y", "shape": [], "dtype": "float32"}, {"name": "StatefulPartitionedCall/pip_line_explode_model/time_series_transformer/transformer_decoder_layer_3/multi_head_attention_6/softmax_6/mul", "shape": [1, 1, 31, 31], "dtype": "float32"}, {"name": "StatefulPartitionedCall/pip_line_explode_model/time_series_transformer/transformer_decoder_layer_3/multi_head_attention_6/value/einsum/Einsum/ReadVariableOp", "shape": [256, 8, 32], "dtype": "float32"}, {"name": "StatefulPartitionedCall/pip_line_explode_model/time_series_transformer/transformer_decoder_layer_3/multi_head_attention_6/value/add/ReadVariableOp", "shape": [8, 32], "dtype": "float32"}, {"name": "StatefulPartitionedCall/pip_line_explode_model/time_series_transformer/transformer_decoder_layer_3/multi_head_attention_6/attention_output/einsum/Einsum/ReadVariableOp", "shape": [8, 32, 256], "dtype": "float32"}, {"name": "StatefulPartitionedCall/pip_line_explode_model/time_series_transformer/transformer_decoder_layer_3/layer_normalization_9/moments/mean/reduction_indices", "shape": [1], "dtype": "int32"}, {"name": "StatefulPartitionedCall/pip_line_explode_model/time_series_transformer/transformer_decoder_layer_3/layer_normalization_9/moments/variance/reduction_indices", "shape": [1], "dtype": "int32"}, {"name": "StatefulPartitionedCall/pip_line_explode_model/time_series_transformer/transformer_decoder_layer_3/layer_normalization_9/batchnorm/add/y", "shape": [], "dtype": "float32"}, {"name": "StatefulPartitionedCall/pip_line_explode_model/time_series_transformer/transformer_decoder_layer_3/layer_normalization_9/batchnorm/mul/ReadVariableOp", "shape": [256], "dtype": "float32"}, {"name": "StatefulPartitionedCall/pip_line_explode_model/time_series_transformer/transformer_decoder_layer_3/multi_head_attention_7/query/einsum/Einsum/ReadVariableOp", "shape": [256, 8, 32], "dtype": "float32"}, {"name": "StatefulPartitionedCall/pip_line_explode_model/time_series_transformer/transformer_decoder_layer_3/multi_head_attention_7/query/add/ReadVariableOp", "shape": [8, 32], "dtype": "float32"}, {"name": "StatefulPartitionedCall/pip_line_explode_model/time_series_transformer/transformer_decoder_layer_3/multi_head_attention_7/Mul/y", "shape": [], "dtype": "float32"}, {"name": "StatefulPartitionedCall/pip_line_explode_model/time_series_transformer/transformer_decoder_layer_2/layer_normalization_8/batchnorm/ReadVariableOp", "shape": [256], "dtype": "float32"}, {"name": "StatefulPartitionedCall/pip_line_explode_model/time_series_transformer/transformer_decoder_layer_2/sequential_2/dense_7/Tensordot/Const", "shape": [1], "dtype": "int32"}, {"name": "StatefulPartitionedCall/pip_line_explode_model/time_series_transformer/transformer_decoder_layer_2/sequential_2/dense_7/Tensordot/axes", "shape": [1], "dtype": "int32"}, {"name": "StatefulPartitionedCall/pip_line_explode_model/time_series_transformer/transformer_decoder_layer_2/sequential_2/dense_7/Tensordot/GatherV2_1/axis", "shape": [], "dtype": "int32"}, {"name": "StatefulPartitionedCall/pip_line_explode_model/time_series_transformer/transformer_decoder_layer_2/sequential_2/dense_7/Tensordot/Const_1", "shape": [1], "dtype": "int32"}, {"name": "StatefulPartitionedCall/pip_line_explode_model/time_series_transformer/transformer_decoder_layer_2/sequential_2/dense_7/Tensordot/ReadVariableOp", "shape": [512, 256], "dtype": "float32"}, {"name": "StatefulPartitionedCall/pip_line_explode_model/time_series_transformer/transformer_decoder_layer_2/sequential_2/dense_6/Tensordot/Const", "shape": [1], "dtype": "int32"}, {"name": "StatefulPartitionedCall/pip_line_explode_model/time_series_transformer/transformer_decoder_layer_2/sequential_2/dense_6/Tensordot/axes", "shape": [1], "dtype": "int32"}, {"name": "StatefulPartitionedCall/pip_line_explode_model/time_series_transformer/transformer_decoder_layer_2/sequential_2/dense_6/Tensordot/GatherV2_1/axis", "shape": [], "dtype": "int32"}, {"name": "StatefulPartitionedCall/pip_line_explode_model/time_series_transformer/transformer_decoder_layer_2/sequential_2/dense_6/Tensordot/Const_1", "shape": [1], "dtype": "int32"}, {"name": "StatefulPartitionedCall/pip_line_explode_model/time_series_transformer/transformer_decoder_layer_2/sequential_2/dense_6/Tensordot/ReadVariableOp", "shape": [256, 512], "dtype": "float32"}, {"name": "StatefulPartitionedCall/pip_line_explode_model/time_series_transformer/transformer_decoder_layer_2/layer_normalization_7/batchnorm/ReadVariableOp", "shape": [256], "dtype": "float32"}, {"name": "StatefulPartitionedCall/pip_line_explode_model/time_series_transformer/transformer_decoder_layer_2/multi_head_attention_5/attention_output/add/ReadVariableOp", "shape": [256], "dtype": "float32"}, {"name": "StatefulPartitionedCall/pip_line_explode_model/time_series_transformer/transformer_decoder_layer_2/multi_head_attention_5/key/einsum/Einsum/ReadVariableOp", "shape": [256, 8, 32], "dtype": "float32"}, {"name": "StatefulPartitionedCall/pip_line_explode_model/time_series_transformer/transformer_decoder_layer_2/multi_head_attention_5/key/add/ReadVariableOp", "shape": [8, 32], "dtype": "float32"}, {"name": "StatefulPartitionedCall/pip_line_explode_model/time_series_transformer/transformer_decoder_layer_2/layer_normalization_6/batchnorm/ReadVariableOp", "shape": [256], "dtype": "float32"}, {"name": "StatefulPartitionedCall/pip_line_explode_model/time_series_transformer/transformer_decoder_layer_2/multi_head_attention_4/attention_output/add/ReadVariableOp", "shape": [256], "dtype": "float32"}, {"name": "StatefulPartitionedCall/pip_line_explode_model/time_series_transformer/transformer_decoder_layer_2/multi_head_attention_4/key/einsum/Einsum/ReadVariableOp", "shape": [256, 8, 32], "dtype": "float32"}, {"name": "StatefulPartitionedCall/pip_line_explode_model/time_series_transformer/transformer_decoder_layer_2/multi_head_attention_4/key/add/ReadVariableOp", "shape": [8, 32], "dtype": "float32"}, {"name": "StatefulPartitionedCall/pip_line_explode_model/time_series_transformer/transformer_decoder_layer_2/multi_head_attention_4/query/einsum/Einsum/ReadVariableOp", "shape": [256, 8, 32], "dtype": "float32"}, {"name": "StatefulPartitionedCall/pip_line_explode_model/time_series_transformer/transformer_decoder_layer_2/multi_head_attention_4/query/add/ReadVariableOp", "shape": [8, 32], "dtype": "float32"}, {"name": "StatefulPartitionedCall/pip_line_explode_model/time_series_transformer/transformer_decoder_layer_2/multi_head_attention_4/Mul/y", "shape": [], "dtype": "float32"}, {"name": "StatefulPartitionedCall/pip_line_explode_model/time_series_transformer/transformer_decoder_layer_2/multi_head_attention_4/softmax_4/mul", "shape": [1, 1, 31, 31], "dtype": "float32"}, {"name": "StatefulPartitionedCall/pip_line_explode_model/time_series_transformer/transformer_decoder_layer_2/multi_head_attention_4/value/einsum/Einsum/ReadVariableOp", "shape": [256, 8, 32], "dtype": "float32"}, {"name": "StatefulPartitionedCall/pip_line_explode_model/time_series_transformer/transformer_decoder_layer_2/multi_head_attention_4/value/add/ReadVariableOp", "shape": [8, 32], "dtype": "float32"}, {"name": "StatefulPartitionedCall/pip_line_explode_model/time_series_transformer/transformer_decoder_layer_2/multi_head_attention_4/attention_output/einsum/Einsum/ReadVariableOp", "shape": [8, 32, 256], "dtype": "float32"}, {"name": "StatefulPartitionedCall/pip_line_explode_model/time_series_transformer/transformer_decoder_layer_2/layer_normalization_6/moments/mean/reduction_indices", "shape": [1], "dtype": "int32"}, {"name": "StatefulPartitionedCall/pip_line_explode_model/time_series_transformer/transformer_decoder_layer_2/layer_normalization_6/moments/variance/reduction_indices", "shape": [1], "dtype": "int32"}, {"name": "StatefulPartitionedCall/pip_line_explode_model/time_series_transformer/transformer_decoder_layer_2/layer_normalization_6/batchnorm/add/y", "shape": [], "dtype": "float32"}, {"name": "StatefulPartitionedCall/pip_line_explode_model/time_series_transformer/transformer_decoder_layer_2/layer_normalization_6/batchnorm/mul/ReadVariableOp", "shape": [256], "dtype": "float32"}, {"name": "StatefulPartitionedCall/pip_line_explode_model/time_series_transformer/transformer_decoder_layer_2/multi_head_attention_5/query/einsum/Einsum/ReadVariableOp", "shape": [256, 8, 32], "dtype": "float32"}, {"name": "StatefulPartitionedCall/pip_line_explode_model/time_series_transformer/transformer_decoder_layer_2/multi_head_attention_5/query/add/ReadVariableOp", "shape": [8, 32], "dtype": "float32"}, {"name": "StatefulPartitionedCall/pip_line_explode_model/time_series_transformer/transformer_decoder_layer_2/multi_head_attention_5/Mul/y", "shape": [], "dtype": "float32"}, {"name": "StatefulPartitionedCall/pip_line_explode_model/time_series_transformer/transformer_decoder_layer_1/layer_normalization_5/batchnorm/ReadVariableOp", "shape": [256], "dtype": "float32"}, {"name": "StatefulPartitionedCall/pip_line_explode_model/time_series_transformer/transformer_decoder_layer_1/sequential_1/dense_5/Tensordot/Const", "shape": [1], "dtype": "int32"}, {"name": "StatefulPartitionedCall/pip_line_explode_model/time_series_transformer/transformer_decoder_layer_1/sequential_1/dense_5/Tensordot/axes", "shape": [1], "dtype": "int32"}, {"name": "StatefulPartitionedCall/pip_line_explode_model/time_series_transformer/transformer_decoder_layer_1/sequential_1/dense_5/Tensordot/GatherV2_1/axis", "shape": [], "dtype": "int32"}, {"name": "StatefulPartitionedCall/pip_line_explode_model/time_series_transformer/transformer_decoder_layer_1/sequential_1/dense_5/Tensordot/Const_1", "shape": [1], "dtype": "int32"}, {"name": "StatefulPartitionedCall/pip_line_explode_model/time_series_transformer/transformer_decoder_layer_1/sequential_1/dense_5/Tensordot/ReadVariableOp", "shape": [512, 256], "dtype": "float32"}, {"name": "StatefulPartitionedCall/pip_line_explode_model/time_series_transformer/transformer_decoder_layer_1/sequential_1/dense_4/Tensordot/Const", "shape": [1], "dtype": "int32"}, {"name": "StatefulPartitionedCall/pip_line_explode_model/time_series_transformer/transformer_decoder_layer_1/sequential_1/dense_4/Tensordot/axes", "shape": [1], "dtype": "int32"}, {"name": "StatefulPartitionedCall/pip_line_explode_model/time_series_transformer/transformer_decoder_layer_1/sequential_1/dense_4/Tensordot/GatherV2_1/axis", "shape": [], "dtype": "int32"}, {"name": "StatefulPartitionedCall/pip_line_explode_model/time_series_transformer/transformer_decoder_layer_1/sequential_1/dense_4/Tensordot/Const_1", "shape": [1], "dtype": "int32"}, {"name": "StatefulPartitionedCall/pip_line_explode_model/time_series_transformer/transformer_decoder_layer_1/sequential_1/dense_4/Tensordot/ReadVariableOp", "shape": [256, 512], "dtype": "float32"}, {"name": "StatefulPartitionedCall/pip_line_explode_model/time_series_transformer/transformer_decoder_layer_1/layer_normalization_4/batchnorm/ReadVariableOp", "shape": [256], "dtype": "float32"}, {"name": "StatefulPartitionedCall/pip_line_explode_model/time_series_transformer/transformer_decoder_layer_1/multi_head_attention_3/attention_output/add/ReadVariableOp", "shape": [256], "dtype": "float32"}, {"name": "StatefulPartitionedCall/pip_line_explode_model/time_series_transformer/transformer_decoder_layer_1/multi_head_attention_3/key/einsum/Einsum/ReadVariableOp", "shape": [256, 8, 32], "dtype": "float32"}, {"name": "StatefulPartitionedCall/pip_line_explode_model/time_series_transformer/transformer_decoder_layer_1/multi_head_attention_3/key/add/ReadVariableOp", "shape": [8, 32], "dtype": "float32"}, {"name": "StatefulPartitionedCall/pip_line_explode_model/time_series_transformer/transformer_decoder_layer_1/layer_normalization_3/batchnorm/ReadVariableOp", "shape": [256], "dtype": "float32"}, {"name": "StatefulPartitionedCall/pip_line_explode_model/time_series_transformer/transformer_decoder_layer_1/multi_head_attention_2/attention_output/add/ReadVariableOp", "shape": [256], "dtype": "float32"}, {"name": "StatefulPartitionedCall/pip_line_explode_model/time_series_transformer/transformer_decoder_layer_1/multi_head_attention_2/key/einsum/Einsum/ReadVariableOp", "shape": [256, 8, 32], "dtype": "float32"}, {"name": "StatefulPartitionedCall/pip_line_explode_model/time_series_transformer/transformer_decoder_layer_1/multi_head_attention_2/key/add/ReadVariableOp", "shape": [8, 32], "dtype": "float32"}, {"name": "StatefulPartitionedCall/pip_line_explode_model/time_series_transformer/transformer_decoder_layer_1/multi_head_attention_2/query/einsum/Einsum/ReadVariableOp", "shape": [256, 8, 32], "dtype": "float32"}, {"name": "StatefulPartitionedCall/pip_line_explode_model/time_series_transformer/transformer_decoder_layer_1/multi_head_attention_2/query/add/ReadVariableOp", "shape": [8, 32], "dtype": "float32"}, {"name": "StatefulPartitionedCall/pip_line_explode_model/time_series_transformer/transformer_decoder_layer_1/multi_head_attention_2/Mul/y", "shape": [], "dtype": "float32"}, {"name": "StatefulPartitionedCall/pip_line_explode_model/time_series_transformer/transformer_decoder_layer_1/multi_head_attention_2/softmax_2/mul", "shape": [1, 1, 31, 31], "dtype": "float32"}, {"name": "StatefulPartitionedCall/pip_line_explode_model/time_series_transformer/transformer_decoder_layer_1/multi_head_attention_2/value/einsum/Einsum/ReadVariableOp", "shape": [256, 8, 32], "dtype": "float32"}, {"name": "StatefulPartitionedCall/pip_line_explode_model/time_series_transformer/transformer_decoder_layer_1/multi_head_attention_2/value/add/ReadVariableOp", "shape": [8, 32], "dtype": "float32"}, {"name": "StatefulPartitionedCall/pip_line_explode_model/time_series_transformer/transformer_decoder_layer_1/multi_head_attention_2/attention_output/einsum/Einsum/ReadVariableOp", "shape": [8, 32, 256], "dtype": "float32"}, {"name": "StatefulPartitionedCall/pip_line_explode_model/time_series_transformer/transformer_decoder_layer_1/layer_normalization_3/moments/mean/reduction_indices", "shape": [1], "dtype": "int32"}, {"name": "StatefulPartitionedCall/pip_line_explode_model/time_series_transformer/transformer_decoder_layer_1/layer_normalization_3/moments/variance/reduction_indices", "shape": [1], "dtype": "int32"}, {"name": "StatefulPartitionedCall/pip_line_explode_model/time_series_transformer/transformer_decoder_layer_1/layer_normalization_3/batchnorm/add/y", "shape": [], "dtype": "float32"}, {"name": "StatefulPartitionedCall/pip_line_explode_model/time_series_transformer/transformer_decoder_layer_1/layer_normalization_3/batchnorm/mul/ReadVariableOp", "shape": [256], "dtype": "float32"}, {"name": "StatefulPartitionedCall/pip_line_explode_model/time_series_transformer/transformer_decoder_layer_1/multi_head_attention_3/query/einsum/Einsum/ReadVariableOp", "shape": [256, 8, 32], "dtype": "float32"}, {"name": "StatefulPartitionedCall/pip_line_explode_model/time_series_transformer/transformer_decoder_layer_1/multi_head_attention_3/query/add/ReadVariableOp", "shape": [8, 32], "dtype": "float32"}, {"name": "StatefulPartitionedCall/pip_line_explode_model/time_series_transformer/transformer_decoder_layer_1/multi_head_attention_3/Mul/y", "shape": [], "dtype": "float32"}, {"name": "StatefulPartitionedCall/pip_line_explode_model/time_series_transformer/transformer_decoder_layer/layer_normalization_2/batchnorm/ReadVariableOp", "shape": [256], "dtype": "float32"}, {"name": "StatefulPartitionedCall/pip_line_explode_model/time_series_transformer/transformer_decoder_layer/sequential/dense_3/Tensordot/Const", "shape": [1], "dtype": "int32"}, {"name": "StatefulPartitionedCall/pip_line_explode_model/time_series_transformer/transformer_decoder_layer/sequential/dense_3/Tensordot/axes", "shape": [1], "dtype": "int32"}, {"name": "StatefulPartitionedCall/pip_line_explode_model/time_series_transformer/transformer_decoder_layer/sequential/dense_3/Tensordot/GatherV2_1/axis", "shape": [], "dtype": "int32"}, {"name": "StatefulPartitionedCall/pip_line_explode_model/time_series_transformer/transformer_decoder_layer/sequential/dense_3/Tensordot/Const_1", "shape": [1], "dtype": "int32"}, {"name": "StatefulPartitionedCall/pip_line_explode_model/time_series_transformer/transformer_decoder_layer/sequential/dense_3/Tensordot/ReadVariableOp", "shape": [512, 256], "dtype": "float32"}, {"name": "StatefulPartitionedCall/pip_line_explode_model/time_series_transformer/transformer_decoder_layer/sequential/dense_2/Tensordot/Const", "shape": [1], "dtype": "int32"}, {"name": "StatefulPartitionedCall/pip_line_explode_model/time_series_transformer/transformer_decoder_layer/sequential/dense_2/Tensordot/axes", "shape": [1], "dtype": "int32"}, {"name": "StatefulPartitionedCall/pip_line_explode_model/time_series_transformer/transformer_decoder_layer/sequential/dense_2/Tensordot/GatherV2_1/axis", "shape": [], "dtype": "int32"}, {"name": "StatefulPartitionedCall/pip_line_explode_model/time_series_transformer/transformer_decoder_layer/sequential/dense_2/Tensordot/Const_1", "shape": [1], "dtype": "int32"}, {"name": "StatefulPartitionedCall/pip_line_explode_model/time_series_transformer/transformer_decoder_layer/sequential/dense_2/Tensordot/ReadVariableOp", "shape": [256, 512], "dtype": "float32"}, {"name": "StatefulPartitionedCall/pip_line_explode_model/time_series_transformer/transformer_decoder_layer/layer_normalization_1/batchnorm/ReadVariableOp", "shape": [256], "dtype": "float32"}, {"name": "StatefulPartitionedCall/pip_line_explode_model/time_series_transformer/transformer_decoder_layer/multi_head_attention_1/attention_output/add/ReadVariableOp", "shape": [256], "dtype": "float32"}, {"name": "StatefulPartitionedCall/pip_line_explode_model/time_series_transformer/transformer_decoder_layer/multi_head_attention_1/key/einsum/Einsum/ReadVariableOp", "shape": [256, 8, 32], "dtype": "float32"}, {"name": "StatefulPartitionedCall/pip_line_explode_model/time_series_transformer/transformer_decoder_layer/multi_head_attention_1/key/add/ReadVariableOp", "shape": [8, 32], "dtype": "float32"}, {"name": "StatefulPartitionedCall/pip_line_explode_model/time_series_transformer/transformer_decoder_layer/layer_normalization/batchnorm/ReadVariableOp", "shape": [256], "dtype": "float32"}, {"name": "StatefulPartitionedCall/pip_line_explode_model/time_series_transformer/transformer_decoder_layer/multi_head_attention/attention_output/add/ReadVariableOp", "shape": [256], "dtype": "float32"}, {"name": "StatefulPartitionedCall/pip_line_explode_model/time_series_transformer/transformer_decoder_layer/multi_head_attention/key/einsum/Einsum/ReadVariableOp", "shape": [256, 8, 32], "dtype": "float32"}, {"name": "StatefulPartitionedCall/pip_line_explode_model/time_series_transformer/transformer_decoder_layer/multi_head_attention/key/add/ReadVariableOp", "shape": [8, 32], "dtype": "float32"}, {"name": "StatefulPartitionedCall/pip_line_explode_model/time_series_transformer/transformer_decoder_layer/multi_head_attention/query/einsum/Einsum/ReadVariableOp", "shape": [256, 8, 32], "dtype": "float32"}, {"name": "StatefulPartitionedCall/pip_line_explode_model/time_series_transformer/transformer_decoder_layer/multi_head_attention/query/add/ReadVariableOp", "shape": [8, 32], "dtype": "float32"}, {"name": "StatefulPartitionedCall/pip_line_explode_model/time_series_transformer/transformer_decoder_layer/multi_head_attention/Mul/y", "shape": [], "dtype": "float32"}, {"name": "StatefulPartitionedCall/pip_line_explode_model/time_series_transformer/transformer_decoder_layer/multi_head_attention/softmax/mul", "shape": [1, 1, 31, 31], "dtype": "float32"}, {"name": "StatefulPartitionedCall/pip_line_explode_model/time_series_transformer/transformer_decoder_layer/multi_head_attention/value/einsum/Einsum/ReadVariableOp", "shape": [256, 8, 32], "dtype": "float32"}, {"name": "StatefulPartitionedCall/pip_line_explode_model/time_series_transformer/transformer_decoder_layer/multi_head_attention/value/add/ReadVariableOp", "shape": [8, 32], "dtype": "float32"}, {"name": "StatefulPartitionedCall/pip_line_explode_model/time_series_transformer/transformer_decoder_layer/multi_head_attention/attention_output/einsum/Einsum/ReadVariableOp", "shape": [8, 32, 256], "dtype": "float32"}, {"name": "StatefulPartitionedCall/pip_line_explode_model/time_series_transformer/transformer_decoder_layer/layer_normalization/moments/mean/reduction_indices", "shape": [1], "dtype": "int32"}, {"name": "StatefulPartitionedCall/pip_line_explode_model/time_series_transformer/transformer_decoder_layer/layer_normalization/moments/variance/reduction_indices", "shape": [1], "dtype": "int32"}, {"name": "StatefulPartitionedCall/pip_line_explode_model/time_series_transformer/transformer_decoder_layer/layer_normalization/batchnorm/add/y", "shape": [], "dtype": "float32"}, {"name": "StatefulPartitionedCall/pip_line_explode_model/time_series_transformer/transformer_decoder_layer/layer_normalization/batchnorm/mul/ReadVariableOp", "shape": [256], "dtype": "float32"}, {"name": "StatefulPartitionedCall/pip_line_explode_model/time_series_transformer/transformer_decoder_layer/multi_head_attention_1/query/einsum/Einsum/ReadVariableOp", "shape": [256, 8, 32], "dtype": "float32"}, {"name": "StatefulPartitionedCall/pip_line_explode_model/time_series_transformer/transformer_decoder_layer/multi_head_attention_1/query/add/ReadVariableOp", "shape": [8, 32], "dtype": "float32"}, {"name": "StatefulPartitionedCall/pip_line_explode_model/time_series_transformer/transformer_decoder_layer/multi_head_attention_1/Mul/y", "shape": [], "dtype": "float32"}, {"name": "StatefulPartitionedCall/pip_line_explode_model/time_series_transformer/dense_1/Tensordot/Const", "shape": [1], "dtype": "int32"}, {"name": "StatefulPartitionedCall/pip_line_explode_model/time_series_transformer/dense_1/Tensordot/axes", "shape": [1], "dtype": "int32"}, {"name": "StatefulPartitionedCall/pip_line_explode_model/time_series_transformer/dense_1/Tensordot/GatherV2_1/axis", "shape": [], "dtype": "int32"}, {"name": "StatefulPartitionedCall/pip_line_explode_model/time_series_transformer/dense_1/Tensordot/Const_1", "shape": [1], "dtype": "int32"}, {"name": "StatefulPartitionedCall/pip_line_explode_model/time_series_transformer/dense_1/Tensordot/ReadVariableOp", "shape": [256, 256], "dtype": "float32"}, {"name": "StatefulPartitionedCall/pip_line_explode_model/dense/Tensordot/Const", "shape": [1], "dtype": "int32"}, {"name": "StatefulPartitionedCall/pip_line_explode_model/dense/Tensordot/axes", "shape": [1], "dtype": "int32"}, {"name": "StatefulPartitionedCall/pip_line_explode_model/dense/Tensordot/GatherV2_1/axis", "shape": [], "dtype": "int32"}, {"name": "StatefulPartitionedCall/pip_line_explode_model/dense/Tensordot/Const_1", "shape": [1], "dtype": "int32"}, {"name": "StatefulPartitionedCall/pip_line_explode_model/dense/Tensordot/ReadVariableOp", "shape": [9, 256], "dtype": "float32"}, {"name": "StatefulPartitionedCall/pip_line_explode_model/dense/Tensordot/free", "shape": [2], "dtype": "int32"}, {"name": "StatefulPartitionedCall/pip_line_explode_model/dense/Tensordot/GatherV2/axis", "shape": [], "dtype": "int32"}, {"name": "StatefulPartitionedCall/pip_line_explode_model/dense/Tensordot/Const_2", "shape": [1], "dtype": "int32"}, {"name": "StatefulPartitionedCall/pip_line_explode_model/dense/Tensordot/concat_1/axis", "shape": [], "dtype": "int32"}, {"name": "StatefulPartitionedCall/pip_line_explode_model/dense/BiasAdd/ReadVariableOp", "shape": [256], "dtype": "float32"}, {"name": "StatefulPartitionedCall/pip_line_explode_model/embedding/embedding_lookup", "shape": [31, 256], "dtype": "float32"}, {"name": "StatefulPartitionedCall/pip_line_explode_model/time_series_transformer/dense_1/Tensordot/free", "shape": [2], "dtype": "int32"}, {"name": "StatefulPartitionedCall/pip_line_explode_model/time_series_transformer/dense_1/Tensordot/GatherV2/axis", "shape": [], "dtype": "int32"}, {"name": "StatefulPartitionedCall/pip_line_explode_model/time_series_transformer/dense_1/Tensordot/Const_2", "shape": [1], "dtype": "int32"}, {"name": "StatefulPartitionedCall/pip_line_explode_model/time_series_transformer/dense_1/Tensordot/concat_1/axis", "shape": [], "dtype": "int32"}, {"name": "StatefulPartitionedCall/pip_line_explode_model/time_series_transformer/dense_1/BiasAdd/ReadVariableOp", "shape": [256], "dtype": "float32"}, {"name": "StatefulPartitionedCall/pip_line_explode_model/time_series_transformer/transformer_decoder_layer/multi_head_attention_1/value/einsum/Einsum/ReadVariableOp", "shape": [256, 8, 32], "dtype": "float32"}, {"name": "StatefulPartitionedCall/pip_line_explode_model/time_series_transformer/transformer_decoder_layer/multi_head_attention_1/value/add/ReadVariableOp", "shape": [8, 32], "dtype": "float32"}, {"name": "StatefulPartitionedCall/pip_line_explode_model/time_series_transformer/transformer_decoder_layer/multi_head_attention_1/attention_output/einsum/Einsum/ReadVariableOp", "shape": [8, 32, 256], "dtype": "float32"}, {"name": "StatefulPartitionedCall/pip_line_explode_model/time_series_transformer/transformer_decoder_layer/layer_normalization_1/moments/mean/reduction_indices", "shape": [1], "dtype": "int32"}, {"name": "StatefulPartitionedCall/pip_line_explode_model/time_series_transformer/transformer_decoder_layer/layer_normalization_1/moments/variance/reduction_indices", "shape": [1], "dtype": "int32"}, {"name": "StatefulPartitionedCall/pip_line_explode_model/time_series_transformer/transformer_decoder_layer/layer_normalization_1/batchnorm/add/y", "shape": [], "dtype": "float32"}, {"name": "StatefulPartitionedCall/pip_line_explode_model/time_series_transformer/transformer_decoder_layer/layer_normalization_1/batchnorm/mul/ReadVariableOp", "shape": [256], "dtype": "float32"}, {"name": "StatefulPartitionedCall/pip_line_explode_model/time_series_transformer/transformer_decoder_layer/sequential/dense_2/Tensordot/free", "shape": [2], "dtype": "int32"}, {"name": "StatefulPartitionedCall/pip_line_explode_model/time_series_transformer/transformer_decoder_layer/sequential/dense_2/Tensordot/GatherV2/axis", "shape": [], "dtype": "int32"}, {"name": "StatefulPartitionedCall/pip_line_explode_model/time_series_transformer/transformer_decoder_layer/sequential/dense_2/Tensordot/Const_2", "shape": [1], "dtype": "int32"}, {"name": "StatefulPartitionedCall/pip_line_explode_model/time_series_transformer/transformer_decoder_layer/sequential/dense_2/Tensordot/concat_1/axis", "shape": [], "dtype": "int32"}, {"name": "StatefulPartitionedCall/pip_line_explode_model/time_series_transformer/transformer_decoder_layer/sequential/dense_2/BiasAdd/ReadVariableOp", "shape": [512], "dtype": "float32"}, {"name": "StatefulPartitionedCall/pip_line_explode_model/time_series_transformer/transformer_decoder_layer/sequential/dense_3/Tensordot/free", "shape": [2], "dtype": "int32"}, {"name": "StatefulPartitionedCall/pip_line_explode_model/time_series_transformer/transformer_decoder_layer/sequential/dense_3/Tensordot/GatherV2/axis", "shape": [], "dtype": "int32"}, {"name": "StatefulPartitionedCall/pip_line_explode_model/time_series_transformer/transformer_decoder_layer/sequential/dense_3/Tensordot/Const_2", "shape": [1], "dtype": "int32"}, {"name": "StatefulPartitionedCall/pip_line_explode_model/time_series_transformer/transformer_decoder_layer/sequential/dense_3/Tensordot/concat_1/axis", "shape": [], "dtype": "int32"}, {"name": "StatefulPartitionedCall/pip_line_explode_model/time_series_transformer/transformer_decoder_layer/sequential/dense_3/BiasAdd/ReadVariableOp", "shape": [256], "dtype": "float32"}, {"name": "StatefulPartitionedCall/pip_line_explode_model/time_series_transformer/transformer_decoder_layer/layer_normalization_2/moments/mean/reduction_indices", "shape": [1], "dtype": "int32"}, {"name": "StatefulPartitionedCall/pip_line_explode_model/time_series_transformer/transformer_decoder_layer/layer_normalization_2/moments/variance/reduction_indices", "shape": [1], "dtype": "int32"}, {"name": "StatefulPartitionedCall/pip_line_explode_model/time_series_transformer/transformer_decoder_layer/layer_normalization_2/batchnorm/add/y", "shape": [], "dtype": "float32"}, {"name": "StatefulPartitionedCall/pip_line_explode_model/time_series_transformer/transformer_decoder_layer/layer_normalization_2/batchnorm/mul/ReadVariableOp", "shape": [256], "dtype": "float32"}, {"name": "StatefulPartitionedCall/pip_line_explode_model/time_series_transformer/transformer_decoder_layer_1/multi_head_attention_3/value/einsum/Einsum/ReadVariableOp", "shape": [256, 8, 32], "dtype": "float32"}, {"name": "StatefulPartitionedCall/pip_line_explode_model/time_series_transformer/transformer_decoder_layer_1/multi_head_attention_3/value/add/ReadVariableOp", "shape": [8, 32], "dtype": "float32"}, {"name": "StatefulPartitionedCall/pip_line_explode_model/time_series_transformer/transformer_decoder_layer_1/multi_head_attention_3/attention_output/einsum/Einsum/ReadVariableOp", "shape": [8, 32, 256], "dtype": "float32"}, {"name": "StatefulPartitionedCall/pip_line_explode_model/time_series_transformer/transformer_decoder_layer_1/layer_normalization_4/moments/mean/reduction_indices", "shape": [1], "dtype": "int32"}, {"name": "StatefulPartitionedCall/pip_line_explode_model/time_series_transformer/transformer_decoder_layer_1/layer_normalization_4/moments/variance/reduction_indices", "shape": [1], "dtype": "int32"}, {"name": "StatefulPartitionedCall/pip_line_explode_model/time_series_transformer/transformer_decoder_layer_1/layer_normalization_4/batchnorm/add/y", "shape": [], "dtype": "float32"}, {"name": "StatefulPartitionedCall/pip_line_explode_model/time_series_transformer/transformer_decoder_layer_1/layer_normalization_4/batchnorm/mul/ReadVariableOp", "shape": [256], "dtype": "float32"}, {"name": "StatefulPartitionedCall/pip_line_explode_model/time_series_transformer/transformer_decoder_layer_1/sequential_1/dense_4/Tensordot/free", "shape": [2], "dtype": "int32"}, {"name": "StatefulPartitionedCall/pip_line_explode_model/time_series_transformer/transformer_decoder_layer_1/sequential_1/dense_4/Tensordot/GatherV2/axis", "shape": [], "dtype": "int32"}, {"name": "StatefulPartitionedCall/pip_line_explode_model/time_series_transformer/transformer_decoder_layer_1/sequential_1/dense_4/Tensordot/Const_2", "shape": [1], "dtype": "int32"}, {"name": "StatefulPartitionedCall/pip_line_explode_model/time_series_transformer/transformer_decoder_layer_1/sequential_1/dense_4/Tensordot/concat_1/axis", "shape": [], "dtype": "int32"}, {"name": "StatefulPartitionedCall/pip_line_explode_model/time_series_transformer/transformer_decoder_layer_1/sequential_1/dense_4/BiasAdd/ReadVariableOp", "shape": [512], "dtype": "float32"}, {"name": "StatefulPartitionedCall/pip_line_explode_model/time_series_transformer/transformer_decoder_layer_1/sequential_1/dense_5/Tensordot/free", "shape": [2], "dtype": "int32"}, {"name": "StatefulPartitionedCall/pip_line_explode_model/time_series_transformer/transformer_decoder_layer_1/sequential_1/dense_5/Tensordot/GatherV2/axis", "shape": [], "dtype": "int32"}, {"name": "StatefulPartitionedCall/pip_line_explode_model/time_series_transformer/transformer_decoder_layer_1/sequential_1/dense_5/Tensordot/Const_2", "shape": [1], "dtype": "int32"}, {"name": "StatefulPartitionedCall/pip_line_explode_model/time_series_transformer/transformer_decoder_layer_1/sequential_1/dense_5/Tensordot/concat_1/axis", "shape": [], "dtype": "int32"}, {"name": "StatefulPartitionedCall/pip_line_explode_model/time_series_transformer/transformer_decoder_layer_1/sequential_1/dense_5/BiasAdd/ReadVariableOp", "shape": [256], "dtype": "float32"}, {"name": "StatefulPartitionedCall/pip_line_explode_model/time_series_transformer/transformer_decoder_layer_1/layer_normalization_5/moments/mean/reduction_indices", "shape": [1], "dtype": "int32"}, {"name": "StatefulPartitionedCall/pip_line_explode_model/time_series_transformer/transformer_decoder_layer_1/layer_normalization_5/moments/variance/reduction_indices", "shape": [1], "dtype": "int32"}, {"name": "StatefulPartitionedCall/pip_line_explode_model/time_series_transformer/transformer_decoder_layer_1/layer_normalization_5/batchnorm/add/y", "shape": [], "dtype": "float32"}, {"name": "StatefulPartitionedCall/pip_line_explode_model/time_series_transformer/transformer_decoder_layer_1/layer_normalization_5/batchnorm/mul/ReadVariableOp", "shape": [256], "dtype": "float32"}, {"name": "StatefulPartitionedCall/pip_line_explode_model/time_series_transformer/transformer_decoder_layer_2/multi_head_attention_5/value/einsum/Einsum/ReadVariableOp", "shape": [256, 8, 32], "dtype": "float32"}, {"name": "StatefulPartitionedCall/pip_line_explode_model/time_series_transformer/transformer_decoder_layer_2/multi_head_attention_5/value/add/ReadVariableOp", "shape": [8, 32], "dtype": "float32"}, {"name": "StatefulPartitionedCall/pip_line_explode_model/time_series_transformer/transformer_decoder_layer_2/multi_head_attention_5/attention_output/einsum/Einsum/ReadVariableOp", "shape": [8, 32, 256], "dtype": "float32"}, {"name": "StatefulPartitionedCall/pip_line_explode_model/time_series_transformer/transformer_decoder_layer_2/layer_normalization_7/moments/mean/reduction_indices", "shape": [1], "dtype": "int32"}, {"name": "StatefulPartitionedCall/pip_line_explode_model/time_series_transformer/transformer_decoder_layer_2/layer_normalization_7/moments/variance/reduction_indices", "shape": [1], "dtype": "int32"}, {"name": "StatefulPartitionedCall/pip_line_explode_model/time_series_transformer/transformer_decoder_layer_2/layer_normalization_7/batchnorm/add/y", "shape": [], "dtype": "float32"}, {"name": "StatefulPartitionedCall/pip_line_explode_model/time_series_transformer/transformer_decoder_layer_2/layer_normalization_7/batchnorm/mul/ReadVariableOp", "shape": [256], "dtype": "float32"}, {"name": "StatefulPartitionedCall/pip_line_explode_model/time_series_transformer/transformer_decoder_layer_2/sequential_2/dense_6/Tensordot/free", "shape": [2], "dtype": "int32"}, {"name": "StatefulPartitionedCall/pip_line_explode_model/time_series_transformer/transformer_decoder_layer_2/sequential_2/dense_6/Tensordot/GatherV2/axis", "shape": [], "dtype": "int32"}, {"name": "StatefulPartitionedCall/pip_line_explode_model/time_series_transformer/transformer_decoder_layer_2/sequential_2/dense_6/Tensordot/Const_2", "shape": [1], "dtype": "int32"}, {"name": "StatefulPartitionedCall/pip_line_explode_model/time_series_transformer/transformer_decoder_layer_2/sequential_2/dense_6/Tensordot/concat_1/axis", "shape": [], "dtype": "int32"}, {"name": "StatefulPartitionedCall/pip_line_explode_model/time_series_transformer/transformer_decoder_layer_2/sequential_2/dense_6/BiasAdd/ReadVariableOp", "shape": [512], "dtype": "float32"}, {"name": "StatefulPartitionedCall/pip_line_explode_model/time_series_transformer/transformer_decoder_layer_2/sequential_2/dense_7/Tensordot/free", "shape": [2], "dtype": "int32"}, {"name": "StatefulPartitionedCall/pip_line_explode_model/time_series_transformer/transformer_decoder_layer_2/sequential_2/dense_7/Tensordot/GatherV2/axis", "shape": [], "dtype": "int32"}, {"name": "StatefulPartitionedCall/pip_line_explode_model/time_series_transformer/transformer_decoder_layer_2/sequential_2/dense_7/Tensordot/Const_2", "shape": [1], "dtype": "int32"}, {"name": "StatefulPartitionedCall/pip_line_explode_model/time_series_transformer/transformer_decoder_layer_2/sequential_2/dense_7/Tensordot/concat_1/axis", "shape": [], "dtype": "int32"}, {"name": "StatefulPartitionedCall/pip_line_explode_model/time_series_transformer/transformer_decoder_layer_2/sequential_2/dense_7/BiasAdd/ReadVariableOp", "shape": [256], "dtype": "float32"}, {"name": "StatefulPartitionedCall/pip_line_explode_model/time_series_transformer/transformer_decoder_layer_2/layer_normalization_8/moments/mean/reduction_indices", "shape": [1], "dtype": "int32"}, {"name": "StatefulPartitionedCall/pip_line_explode_model/time_series_transformer/transformer_decoder_layer_2/layer_normalization_8/moments/variance/reduction_indices", "shape": [1], "dtype": "int32"}, {"name": "StatefulPartitionedCall/pip_line_explode_model/time_series_transformer/transformer_decoder_layer_2/layer_normalization_8/batchnorm/add/y", "shape": [], "dtype": "float32"}, {"name": "StatefulPartitionedCall/pip_line_explode_model/time_series_transformer/transformer_decoder_layer_2/layer_normalization_8/batchnorm/mul/ReadVariableOp", "shape": [256], "dtype": "float32"}, {"name": "StatefulPartitionedCall/pip_line_explode_model/time_series_transformer/transformer_decoder_layer_3/multi_head_attention_7/value/einsum/Einsum/ReadVariableOp", "shape": [256, 8, 32], "dtype": "float32"}, {"name": "StatefulPartitionedCall/pip_line_explode_model/time_series_transformer/transformer_decoder_layer_3/multi_head_attention_7/value/add/ReadVariableOp", "shape": [8, 32], "dtype": "float32"}, {"name": "StatefulPartitionedCall/pip_line_explode_model/time_series_transformer/transformer_decoder_layer_3/multi_head_attention_7/attention_output/einsum/Einsum/ReadVariableOp", "shape": [8, 32, 256], "dtype": "float32"}, {"name": "StatefulPartitionedCall/pip_line_explode_model/time_series_transformer/transformer_decoder_layer_3/layer_normalization_10/moments/mean/reduction_indices", "shape": [1], "dtype": "int32"}, {"name": "StatefulPartitionedCall/pip_line_explode_model/time_series_transformer/transformer_decoder_layer_3/layer_normalization_10/moments/variance/reduction_indices", "shape": [1], "dtype": "int32"}, {"name": "StatefulPartitionedCall/pip_line_explode_model/time_series_transformer/transformer_decoder_layer_3/layer_normalization_10/batchnorm/add/y", "shape": [], "dtype": "float32"}, {"name": "StatefulPartitionedCall/pip_line_explode_model/time_series_transformer/transformer_decoder_layer_3/layer_normalization_10/batchnorm/mul/ReadVariableOp", "shape": [256], "dtype": "float32"}, {"name": "StatefulPartitionedCall/pip_line_explode_model/time_series_transformer/transformer_decoder_layer_3/sequential_3/dense_8/Tensordot/free", "shape": [2], "dtype": "int32"}, {"name": "StatefulPartitionedCall/pip_line_explode_model/time_series_transformer/transformer_decoder_layer_3/sequential_3/dense_8/Tensordot/GatherV2/axis", "shape": [], "dtype": "int32"}, {"name": "StatefulPartitionedCall/pip_line_explode_model/time_series_transformer/transformer_decoder_layer_3/sequential_3/dense_8/Tensordot/Const_2", "shape": [1], "dtype": "int32"}, {"name": "StatefulPartitionedCall/pip_line_explode_model/time_series_transformer/transformer_decoder_layer_3/sequential_3/dense_8/Tensordot/concat_1/axis", "shape": [], "dtype": "int32"}, {"name": "StatefulPartitionedCall/pip_line_explode_model/time_series_transformer/transformer_decoder_layer_3/sequential_3/dense_8/BiasAdd/ReadVariableOp", "shape": [512], "dtype": "float32"}, {"name": "StatefulPartitionedCall/pip_line_explode_model/time_series_transformer/transformer_decoder_layer_3/sequential_3/dense_9/Tensordot/free", "shape": [2], "dtype": "int32"}, {"name": "StatefulPartitionedCall/pip_line_explode_model/time_series_transformer/transformer_decoder_layer_3/sequential_3/dense_9/Tensordot/GatherV2/axis", "shape": [], "dtype": "int32"}, {"name": "StatefulPartitionedCall/pip_line_explode_model/time_series_transformer/transformer_decoder_layer_3/sequential_3/dense_9/Tensordot/Const_2", "shape": [1], "dtype": "int32"}, {"name": "StatefulPartitionedCall/pip_line_explode_model/time_series_transformer/transformer_decoder_layer_3/sequential_3/dense_9/Tensordot/concat_1/axis", "shape": [], "dtype": "int32"}, {"name": "StatefulPartitionedCall/pip_line_explode_model/time_series_transformer/transformer_decoder_layer_3/sequential_3/dense_9/BiasAdd/ReadVariableOp", "shape": [256], "dtype": "float32"}, {"name": "StatefulPartitionedCall/pip_line_explode_model/time_series_transformer/transformer_decoder_layer_3/layer_normalization_11/moments/mean/reduction_indices", "shape": [1], "dtype": "int32"}, {"name": "StatefulPartitionedCall/pip_line_explode_model/time_series_transformer/transformer_decoder_layer_3/layer_normalization_11/moments/variance/reduction_indices", "shape": [1], "dtype": "int32"}, {"name": "StatefulPartitionedCall/pip_line_explode_model/time_series_transformer/transformer_decoder_layer_3/layer_normalization_11/batchnorm/add/y", "shape": [], "dtype": "float32"}, {"name": "StatefulPartitionedCall/pip_line_explode_model/time_series_transformer/transformer_decoder_layer_3/layer_normalization_11/batchnorm/mul/ReadVariableOp", "shape": [256], "dtype": "float32"}, {"name": "StatefulPartitionedCall/pip_line_explode_model/time_series_transformer/dense_10/Tensordot/free", "shape": [2], "dtype": "int32"}, {"name": "StatefulPartitionedCall/pip_line_explode_model/time_series_transformer/dense_10/Tensordot/GatherV2/axis", "shape": [], "dtype": "int32"}, {"name": "StatefulPartitionedCall/pip_line_explode_model/time_series_transformer/dense_10/Tensordot/Const_2", "shape": [1], "dtype": "int32"}, {"name": "StatefulPartitionedCall/pip_line_explode_model/time_series_transformer/dense_10/Tensordot/concat_1/axis", "shape": [], "dtype": "int32"}, {"name": "StatefulPartitionedCall/pip_line_explode_model/time_series_transformer/dense_10/BiasAdd/ReadVariableOp", "shape": [256], "dtype": "float32"}, {"name": "StatefulPartitionedCall/pip_line_explode_model/dense_11/Tensordot/free", "shape": [2], "dtype": "int32"}, {"name": "StatefulPartitionedCall/pip_line_explode_model/dense_11/Tensordot/GatherV2/axis", "shape": [], "dtype": "int32"}, {"name": "StatefulPartitionedCall/pip_line_explode_model/dense_11/Tensordot/Const_2", "shape": [1], "dtype": "int32"}, {"name": "StatefulPartitionedCall/pip_line_explode_model/dense_11/Tensordot/concat_1/axis", "shape": [], "dtype": "int32"}, {"name": "StatefulPartitionedCall/pip_line_explode_model/dense_11/BiasAdd/ReadVariableOp", "shape": [9], "dtype": "float32"}, {"name": "StatefulPartitionedCall/pip_line_explode_model/batch_normalization/batchnorm/mul", "shape": [9], "dtype": "float32"}, {"name": "StatefulPartitionedCall/pip_line_explode_model/batch_normalization/batchnorm/sub", "shape": [9], "dtype": "float32"}]}]}